save/FJSP_DRL/train_20240331_010818/save_best_10_5_40.pt (torch, 849961 bytes, 82 tensors)

get_machines.0.attn_l f4 [1, 1, 8]
0	0xbf38d8d8	-0.7220588
1	0xbf6dccba	-0.9289051
2	0x3e2b558d	0.16731854
3	0x3f1d007c	0.61328864
4	0x3eb4c2f1	0.35304978
5	0xbe595f42	-0.21227744
6	0xbe9a7e0f	-0.301743
7	0xbed6af78	-0.41930747

get_machines.0.attn_r f4 [1, 1, 8]
0	0xbe934690	-0.28764772
1	0xbcfc5a15	-0.030804673
2	0xbeab71f4	-0.33485377
3	0xbf25a453	-0.64703864
4	0xbeab1679	-0.33415583
5	0xbf0c7525	-0.5486625
6	0xbf97297b	-1.1809534
7	0xbeca5e0b	-0.39524874

get_machines.0.attn_e f4 [1, 1, 8]
0	0xbee1b287	-0.44081518
1	0xbdb2488b	-0.08705243
2	0x3edf8e14	0.43663085
3	0x3fa285be	1.2697065
4	0x3d4d0404	0.050052658
5	0x3ef1f94c	0.4726051
6	0xbec8518e	-0.3912472
7	0xbf72eb27	-0.94890064

get_machines.0.fc_src.weight f4 [8, 6]
0	0x3efb08ba	0.49030095
1	0x3d3c67ab	0.045997303
2	0xbe7637de	-0.24044749
3	0xbe513b1b	-0.20432703
4	0x3f250fee	0.6447743
5	0x3e009c92	0.12559727
6	0x3f8b8ffd	1.0903317
7	0xbd28e53d	-0.041234244
8	0x3f0f0267	0.5586304
9	0xbe08158d	-0.13289471
10	0x3d65acd7	0.056073036
11	0x3eeab5a6	0.45841712
12	0xbd9ccc06	-0.07656102
13	0xbf031ed1	-0.512189
14	0x3f54b7e9	0.83093125
15	0x3d206c77	0.03916594
16	0xbe1760d8	-0.14783037
17	0x3f3a114c	0.7268264
18	0x3f722f0e	0.9460305
19	0x3f12ef5a	0.5739647
20	0x3ef29956	0.4738261
21	0xbdc2be5c	-0.095089644
22	0xbf0802fb	-0.5312955
23	0xbeb4031c	-0.35158622
24	0xbf878357	-1.0586957
25	0x3f35ccba	0.7101551
26	0x3f3f0bd6	0.74627435
27	0x3e3c7377	0.18403421
28	0xbf4ef7bd	-0.8084677
29	0x3fc0a122	1.5049174
30	0xbf042871	-0.5162421
31	0x3d810339	0.06299443
32	0xbe8a7ca9	-0.27048233
33	0xbf02c135	-0.5107606
34	0xbe27af12	-0.16375378
35	0xbf3e3b6e	-0.7430943
36	0xbeba0778	-0.36333823
37	0xbe2a6657	-0.16640602
38	0x3ee1a8d7	0.44074127
39	0xbe3aa91d	-0.18228574
40	0x3e77c772	0.24197176
41	0x3f3a0bd6	0.7267431
42	0x3e120e4c	0.14263266
43	0xbf2d9845	-0.6781047
44	0xbf8ba25e	-1.0908926
45	0x3ec36443	0.3816243
46	0xbd29bd4d	-0.041440297
47	0xbed62a27	-0.41829035

get_machines.0.fc_dst.weight f4 [8, 3]
0	0x3e2012dd	0.15632196
1	0xbff1e207	-1.8897103
2	0xbc769abc	-0.01505154
3	0x3f2ea03d	0.68213254
4	0xbee4d70d	-0.4469532
5	0xbe137f21	-0.14403965
6	0x3f2aea24	0.6676352
7	0x3f1ffcf5	0.62495357
8	0x3f1028cf	0.5631227
9	0x3f15f6c3	0.58579654
10	0x3ea08419	0.31350783
11	0x3f0e880f	0.5567636
12	0xbf7c12e1	-0.98466307
13	0xbe51e2d5	-0.20496686
14	0xbe7618be	-0.24032876
15	0x3e3502df	0.17676876
16	0x3f9eeab6	1.2415378
17	0xbe8ec027	-0.27880976
18	0x3e379438	0.17927635
19	0xbe5d1d08	-0.21593106
20	0xbf827860	-1.0192986
21	0x3f3aa099	0.729013
22	0xbeacc5c5	-0.33744636
23	0x3fa49ebe	1.2860944

get_machines.0.fc_edge.weight f4 [8, 1]
0	0xbe58cde7	-0.21172296
1	0xbdbc1275	-0.09183208
2	0xbf1c8efd	-0.6115568
3	0x3f209350	0.6272478
4	0x3fb04eee	1.3774087
5	0xbf1afcc4	-0.6054194
6	0xbed590ae	-0.41711944
7	0xbeb47e0c	-0.35252416

get_machines.1.attn_l f4 [1, 1, 8]
0	0x3f2ed5ed	0.68295175
1	0x3eb110b1	0.34583047
2	0x3eb18e29	0.34678772
3	0xbf05384b	-0.5203902
4	0xbe169bb7	-0.14707838
5	0x3e56a68f	0.20961975
6	0xbea3e71e	-0.32012266
7	0x3e1d1d51	0.15343215

get_machines.1.attn_r f4 [1, 1, 8]
0	0xbf6952fd	-0.91142255
1	0x3ea3c17a	0.31983548
2	0xbe5ce98b	-0.21573465
3	0xbde140f0	-0.10998714
4	0x3db574f1	0.088601954
5	0x3a9ac0a6	0.0011806681
6	0x3e5e071b	0.21682398
7	0x3eabf976	0.3358876

get_machines.1.attn_e f4 [1, 1, 8]
0	0x3f1ebd1a	0.62007296
1	0xbaa20fd3	-0.0012364335
2	0xbe09b372	-0.13447359
3	0xbe6f4431	-0.23365857
4	0x3f45f65e	0.7732905
5	0x3e75cd91	0.24004199
6	0x3f058cdf	0.5216808
7	0xbfb72c4f	-1.4310397

get_machines.1.fc_src.weight f4 [8, 8]
0	0x3eb38e2e	0.35069412
1	0x3f4cbcff	0.79975885
2	0xbed82210	-0.42213488
3	0xbe82ef1b	-0.25573048
4	0xbebf214e	-0.37330097
5	0xbf447489	-0.7674032
6	0xbea5fcdd	-0.32419482
7	0xbe36cc10	-0.17851281
8	0xbe49e930	-0.1971786
9	0x3df923f3	0.1216506
10	0x3da4f526	0.08054571
11	0xbf016f50	-0.50560474
12	0x3f27d1ec	0.6555469
13	0xbee5adc4	-0.44859135
14	0x3eb25108	0.34827447
15	0xbe90d0c1	-0.28284267
16	0x3f15049f	0.58210176
17	0xbda1a9c9	-0.07893712
18	0xbf9e5a74	-1.2371354
19	0xbe93116d	-0.28724232
20	0x3c3232f4	0.010876406
21	0x3ed3fc12	0.41403252
22	0xbf192cdb	-0.5983407
23	0xbf288ca9	-0.6583963
24	0xbf420375	-0.75786525
25	0x3db8c6a8	0.09022266
26	0x3eea22e2	0.45729738
27	0xbec59821	-0.38592628
28	0x3dc5e3a8	0.096625626
29	0x3ee7c7be	0.4526958
30	0x3b5c9a68	0.003366137
31	0x3df716f4	0.12064925
32	0x3f920b19	1.1409637
33	0xbf1e5d11	-0.6186076
34	0x3eeec165	0.46631923
35	0x3ea76035	0.32690588
36	0xbe3cb58c	-0.1842863
37	0xbe875e6e	-0.26439232
38	0xbf0ca2a1	-0.5493565
39	0x3cedf653	0.02904812
40	0x3e760496	0.24025187
41	0xbf9d655b	-1.2296556
42	0x3e75d9db	0.24008887
43	0xbedddd36	-0.43332833
44	0xbf8c10af	-1.0942591
45	0xbf0ea473	-0.5571968
46	0x3c724c40	0.014788687
47	0xbec445f3	-0.38334617
48	0x3ea4b783	0.32171258
49	0x3f0abaa0	0.5419102
50	0x3e03dc81	0.12877084
51	0x3e3fc1f4	0.18726331
52	0x3ec1187d	0.37713996
53	0xbeee8475	-0.46585432
54	0xbda64fd6	-0.08120696
55	0x3d8b3955	0.067980446
56	0xbe4b2ea3	-0.19842009
57	0x3e0e882a	0.1391913
58	0x3ec81203	0.39076242
59	0xbee236e2	-0.44182497
60	0x3cff65ff	0.031176565
61	0x3ecfaf46	0.4056341
62	0x3da8109e	0.082062945
63	0xbee2ec01	-0.44320682

get_machines.1.fc_dst.weight f4 [8, 8]
0	0xbec151d0	-0.3775773
1	0xbf36239c	-0.71148086
2	0x3f78bc5e	0.97162426
3	0xbf0b4819	-0.5440689
4	0xbd897b6e	-0.067129955
5	0xbef2ef9c	-0.47448432
6	0xbe875147	-0.26429197
7	0xbe894eaa	-0.26817828
8	0x3f451e00	0.769989
9	0xbd2389a9	-0.039926205
10	0xbf2647f6	-0.64953554
11	0x3f4d903c	0.8029821
12	0x3f8c8274	1.0977311
13	0xbd52fdcd	-0.051511575
14	0xbe58b53c	-0.21162885
15	0xbd1db5d1	-0.03850347
16	0x3e035aac	0.12827557
17	0xbec82512	-0.39090782
18	0xbf2e040d	-0.6797493
19	0x3ed927e0	0.42413235
20	0xbe17ba51	-0.14817168
21	0xbecd891a	-0.40143663
22	0x3dd66517	0.104685
23	0xbddf6e35	-0.10909692
24	0xbe15fc06	-0.1464692
25	0xbcd29f39	-0.025710689
26	0xbe12f6e2	-0.14351991
27	0xbf0e6f99	-0.55639035
28	0x3e7a1c2b	0.24424808
29	0xbefd92b4	-0.49525988
30	0xbf203b61	-0.62590605
31	0xbf2a5bc6	-0.66546285
32	0x3f1bdbf6	0.6088251
33	0x3cd5ccde	0.026098665
34	0xbe1ee2eb	-0.1551625
35	0xbdd3e0a9	-0.10345585
36	0xbef600dc	-0.4804753
37	0x3da658ed	0.0812243
38	0x3f27a694	0.65488553
39	0xbf0309cf	-0.5118684
40	0xbc7df07e	-0.015499232
41	0xbebc21c8	-0.36744523
42	0xbf528761	-0.8223782
43	0xbf2f6fab	-0.68529767
44	0x3f12fd13	0.5741741
45	0x3ee8b84d	0.4545311
46	0xbe0306d9	-0.12795581
47	0xbe4d44e4	-0.20045811
48	0x3f4f3968	0.8094697
49	0x3e509a7e	0.20371434
50	0xbdc84134	-0.097780615
51	0xbf43b69e	-0.76450527
52	0xbd14d5ba	-0.036336638
53	0xbe8d65f4	-0.27616847
54	0x3ee3a299	0.4445999
55	0x3ebef11b	0.37293324
56	0xbe443d53	-0.19164018
57	0xbbac3374	-0.005255157
58	0xbeffcf73	-0.4996296
59	0xbf400662	-0.7500974
60	0xbdba666c	-0.09101567
61	0x3f2cb334	0.6746094
62	0x3c985398	0.018594548
63	0xbf72334c	-0.9460952

get_machines.1.fc_edge.weight f4 [8, 1]
0	0xbeb99cf0	-0.36252546
1	0xbfa66345	-1.2999045
2	0x3e1bda2f	0.15219949
3	0x3fe05e73	1.7528824
4	0xbfcd8201	-1.6055299
5	0xbe95832b	-0.29201636
6	0xbf8bd250	-1.0923557
7	0x3e3fe69b	0.18740313

get_operations.0.gnn_layers.0.project.0.weight f4 [128, 8]
0	0xbea25549	-0.31705692
1	0xbe12d098	-0.14337385
2	0x3e1028cb	0.14078061
3	0xbe331968	-0.1749016
4	0x3e923ed0	0.28563547
5	0x3d1bc4d4	0.038029507
6	0x3ea2d33b	0.3180178
7	0xbd8f3654	-0.06992784
8	0xbe8cb185	-0.27479187
9	0x3d75fb20	0.060053945
10	0x3e90eded	0.28306523
11	0xbe674367	-0.22584306
12	0xbe514414	-0.20436126
13	0xbe1319fc	-0.14365381
14	0x3e9d12dd	0.30678454
15	0x3ea157e9	0.31512383
16	0xbea9d397	-0.33169243
17	0x3bc6fbdd	0.006072505
18	0x3e90cd48	0.28281617
19	0xbdce1fdd	-0.10064671
20	0xbe697e59	-0.22802104
21	0x3e39b43a	0.18135157
22	0x3eb751df	0.3580465
23	0x3e4c2b8d	0.19938488
24	0x3dbe4f62	0.09292485
25	0xbe8467f3	-0.25860557
26	0xbe902094	-0.28149855
27	0xbea41799	-0.32049254
28	0x3ea17254	0.31532538
29	0xbe120c21	-0.1426244
30	0xbe14bd2d	-0.1452529
31	0xbe293fa5	-0.16528185
32	0x3dcc5520	0.09977174
33	0xbe79b2d4	-0.24384624
34	0x3e0389e7	0.12845574
35	0x3e29a3b0	0.16566348
36	0x3e8a7449	0.27041844
37	0xbe9e022a	-0.30861026
38	0xbe87135d	-0.2638196
39	0xbc91b99a	-0.017788697
40	0xbddb9a99	-0.107228465
41	0xbd7a91b8	-0.061174124
42	0xbebacafb	-0.36482987
43	0x3e9e429a	0.30910188
44	0xbe67f0ea	-0.22650495
45	0xbe9234d8	-0.28555942
46	0x3dca54d9	0.09879465
47	0xbe29e264	-0.16590267
48	0x3e89e48d	0.26932183
49	0xbe8415fc	-0.25798023
50	0x3e58a49e	0.21156546
51	0xbd16b3d6	-0.0367926
52	0x3ea5fa9b	0.3241776
53	0x3e9e39d1	0.30903485
54	0x3e98989e	0.29803938
55	0xbeac250b	-0.33622012
56	0x3d4a7c4a	0.049434938
57	0x3e925c69	0.28586128
58	0x3e8d861d	0.27641383
59	0x3dd5a4cd	0.10431824
60	0xbea5363f	-0.3226795
61	0xbe1603a3	-0.14649825
62	0xbe955eed	-0.29173985
63	0x3c95108b	0.018196365
64	0xbb560b34	-0.0032660486
65	0x3e047550	0.12935376
66	0x3cc012d9	0.023446487
67	0x3e5e4cbd	0.21708961
68	0xbe5abb4a	-0.21360508
69	0x3e023891	0.12716891
70	0x3e9b1a2e	0.3029341
71	0x3e088d55	0.13335164
72	0x3e638e03	0.22222142
73	0x3dd7bddb	0.10534259
74	0xbeabe844	-0.33575642
75	0xbe55383d	-0.20822234
76	0xbeada956	-0.33918256
77	0x3e18686c	0.14883584
78	0xbe3be3a5	-0.18348558
79	0xbd4aa119	-0.04947004
80	0x3e9a0385	0.3008081
81	0x3e91c91d	0.2847375
82	0xbe9a084e	-0.3008446
83	0x3e0161ff	0.12635039
84	0x3e913a7b	0.2836493
85	0xbdfaca54	-0.12245622
86	0xbd99face	-0.0751854
87	0xbea0ce8f	-0.31407592
88	0xbe711cf2	-0.23546198
89	0x3e7c8803	0.2466126
90	0x3d0c1a46	0.034204744
91	0x3e0dcefb	0.13848488
92	0xb8fc5031	-0.00012031233
93	0x3e21f8ea	0.1581761
94	0xbd47a10f	-0.04873758
95	0xbe4d794a	-0.200658
96	0x3e211669	0.15731205
97	0xbea60ad4	-0.32430136
98	0x3eaf119a	0.34193116
99	0xbe7a1c98	-0.2442497
100	0xbeac907b	-0.3370398
101	0x3ea556ff	0.32292935
102	0xbe4a34d9	-0.19746722
103	0xbdf9f931	-0.122057326
104	0xbe782887	-0.2423421
105	0x3cf83463	0.030298417
106	0x3eaebedd	0.34129992
107	0x3ebd84c4	0.37015355
108	0xbd48eab3	-0.04905195
109	0x3e0dcffd	0.13848872
110	0x3e091a48	0.13388932
111	0x3e05cb3a	0.13065806
112	0xbe4af514	-0.19820052
113	0x3d574ac5	0.05256154
114	0xbdb01f1a	-0.08599682
115	0xbe8adee1	-0.27123168
116	0x3e3a41e0	0.18189192
117	0x3e13201c	0.14367718
118	0x3e8bc37b	0.27297577
119	0x3e8aff6b	0.27147993
120	0x3dad2328	0.08453971
121	0xbd054ac2	-0.032541998
122	0xbeb0dd46	-0.34543818
123	0xbea8fe62	-0.3300658
124	0x3e9727be	0.29522508
125	0xbe097da3	-0.13426833
126	0xbe15a8ad	-0.14615126
127	0xbdd972f8	-0.10617632
128	0x3eb43e8c	0.3520397
129	0x3e02de6f	0.12780164
130	0x3c18fffa	0.009338373
131	0x3e90e409	0.28298977
132	0xbe8533ef	-0.26016185
133	0x3d81660c	0.06318292
134	0xbe750f1b	-0.23931544
135	0x3db33b42	0.08751537
136	0x3e90b39c	0.2826203
137	0xbeb94afd	-0.36190024
138	0xbe645528	-0.2229811
139	0xbe8866fa	-0.26641065
140	0x3eaa50be	0.33264726
141	0xbe956945	-0.29181877
142	0x3e3127e3	0.17300372
143	0x3dab6ceb	0.08370384
144	0x3e21b16d	0.15790339
145	0x3dde1b8f	0.108451
146	0xbe167a9d	-0.14695211
147	0xbe06a2e2	-0.13148072
148	0x3eb2e742	0.3494206
149	0x3db24e5b	0.08706351
150	0x3d9c212a	0.07623513
151	0xbdeac189	-0.11462695
152	0xbe4c39c2	-0.19943908
153	0xbea3eed6	-0.32018155
154	0xbcdeb646	-0.027186524
155	0x3d975bda	0.07390566
156	0x3df9d4c7	0.12198787
157	0xbdda9d7a	-0.106745675
158	0xbb6cbc75	-0.0036123071
159	0xbc92ad68	-0.017904952
160	0xbe91fd19	-0.2851341
161	0x3d454129	0.048157845
162	0xbd030ecf	-0.031996544
163	0x3ea33d82	0.31882864
164	0xbeb337ab	-0.3500341
165	0xbe9a64bc	-0.3015498
166	0xbe4c8b50	-0.19975019
167	0x3e319feb	0.1734616
168	0x3d0967da	0.033546306
169	0x3e62dcfb	0.2215461
170	0xbe986d18	-0.29770732
171	0x3e68d954	0.22739154
172	0xbe867887	-0.2626383
173	0x3e9fc8a9	0.3120778
174	0xbe487b33	-0.19578247
175	0xbca974e7	-0.020685626
176	0x3e9e574c	0.30925977
177	0x3e8a3a82	0.26997763
178	0x3e5addcc	0.21373671
179	0x3e45779e	0.19283912
180	0xbe77e557	-0.2420858
181	0x3ac6edd5	0.0015177081
182	0x3dcdd7a8	0.10050899
183	0xbd6476ff	-0.055777546
184	0x3e93d562	0.28873736
185	0xbe9eae05	-0.3099214
186	0x3e420e6e	0.18950817
187	0xbeb03a1c	-0.34419334
188	0xbdc8531c	-0.09781477
189	0xbd11215f	-0.035432216
190	0xbde97d39	-0.114008375
191	0x3c5bcd33	0.0134156225
192	0x3e9434b3	0.28946456
193	0x3c4a6b9b	0.012354757
194	0x3df9653f	0.12177514
195	0xbe33c845	-0.17556866
196	0xbe2cc16d	-0.16870661
197	0xbe4dcc33	-0.20097427
198	0x3de16733	0.11006012
199	0x3e1cf32a	0.15327135
200	0xbeab2a8a	-0.33430892
201	0x3e9843b7	0.29739162
202	0xbd13a2ea	-0.03604404
203	0xbe81b117	-0.2533042
204	0xbe9f25f1	-0.31083634
205	0xbd001862	-0.031273253
206	0xbe788a8b	-0.242716
207	0x3cb0ef38	0.021598443
208	0x3e031a24	0.1280294
209	0xbe82485d	-0.25445834
210	0xbdcd587d	-0.100266434
211	0xbe7abb5c	-0.24485534
212	0x3e26ec5a	0.16301098
213	0xbe0ee5f1	-0.13954903
214	0xbd7dd04c	-0.061966226
215	0xbeb28f94	-0.34875166
216	0x3e2bdb0d	0.1678278
217	0x3daa1c0d	0.083061315
218	0xbe7a734c	-0.24458045
219	0xbe3bcf72	-0.18340853
220	0xbe5f7bb8	-0.21824539
221	0xbea8edbd	-0.3299388
222	0xbe5da602	-0.21645358
223	0x3e2d78bb	0.16940586
224	0xbea171e8	-0.31532216
225	0x3e1bb541	0.15205862
226	0xbe72d593	-0.23714285
227	0xbe28b49b	-0.16475146
228	0x3c92c3aa	0.017915566
229	0xbd9aa5e8	-0.07551175
230	0xbdb90af1	-0.0903529
231	0x3d0d2a5b	0.03446422
232	0x3e0fd4e9	0.14046063
233	0xbe84c58a	-0.2593196
234	0xbe548714	-0.20754653
235	0xbe447b31	-0.19187619
236	0xbe9dcd2b	-0.30820593
237	0x3db5470c	0.08851442
238	0x3e299de3	0.16564135
239	0xbe103b9f	-0.14085244
240	0x3d9af767	0.075667195
241	0xbe0b9fa4	-0.13635117
242	0x3d9a3bc0	0.07530928
243	0x3eb1999c	0.34687507
244	0xbeab1290	-0.334126
245	0xbd113fa0	-0.03546107
246	0xbbc0d6d1	-0.005884983
247	0xbe366542	-0.17812064
248	0x3e0c3c80	0.13694954
249	0xbc965a18	-0.018353507
250	0x3e3a6b7e	0.18205068
251	0x3e150715	0.14553483
252	0xbe16b209	-0.14716353
253	0xbcd0c5d7	-0.025484962
254	0x3e2e01d3	0.16992883
255	0x3dccdc0b	0.10002907

get_operations.0.gnn_layers.0.project.0.bias f4 [128]
0	0xbe431541	-0.19051076
1	0xbd85178f	-0.06498634
2	0x3e9d31cd	0.30702057
3	0x3ea4eb5c	0.32210815
4	0xbe342ffd	-0.17596431
5	0xbe3be145	-0.18347652
6	0xbe5deb9c	-0.21671909
7	0x3e862232	0.26197964
8	0x3ea6ab9e	0.3255281
9	0xbe8f5f09	-0.28002194
10	0x3e643b2a	0.22288194
11	0x3e9074e4	0.2821418
12	0x3e273360	0.16328192
13	0x3ea7b57f	0.32755658
14	0xbd015e54	-0.0315841
15	0xbd93c57b	-0.07215401
16	0xbd86a99d	-0.0657532
17	0xbcb895c9	-0.02253236
18	0x3e70908e	0.23492643
19	0xbe43f815	-0.19137605
20	0xbd5ced54	-0.05393727
21	0x3e8e8a3a	0.27839833
22	0xbea575ab	-0.32316336
23	0xbeab5468	-0.33462834
24	0x3e1e5ced	0.15465136
25	0xbdca9d85	-0.09893326
26	0x3e03ab28	0.1285826
27	0x3e6b8d6a	0.23003164
28	0xbe0b6bb5	-0.13615306
29	0x3e13b8f7	0.14426027
30	0xbcab59d4	-0.020916857
31	0xbe9f4092	-0.3110395
32	0xbe9e572d	-0.30925885
33	0x3e8e5172	0.27796513
34	0xbdda5b3a	-0.10661931
35	0x3e8632fc	0.26210773
36	0x3dc7f824	0.09764126
37	0xbdd03cec	-0.1016787
38	0xbc9dfd31	-0.01928577
39	0x3e739f26	0.23791179
40	0x3d492935	0.049111564
41	0xbd3b6d7d	-0.045758713
42	0xbe738f32	-0.23785093
43	0x3c15b4a8	0.00913731
44	0x3e46eed7	0.19427048
45	0xbcd675e0	-0.026179254
46	0xbd71bc67	-0.059017565
47	0xbe0e3686	-0.13887987
48	0xbeb14273	-0.3462101
49	0x3da624b7	0.081124716
50	0xbe15640e	-0.14588949
51	0xbe179a03	-0.14804845
52	0xbe05aaab	-0.13053386
53	0xbe7fd228	-0.24982512
54	0xbdbb9bb4	-0.091605574
55	0xbeb1bb23	-0.34713086
56	0xbdc14d5a	-0.09438582
57	0xbe315da2	-0.17320874
58	0xbd7a83a2	-0.06116069
59	0x3ead5d34	0.3386017
60	0x3e657e2a	0.22411409
61	0xbe3e0aeb	-0.18558852
62	0x3d1d3958	0.038384765
63	0x3c5d3b06	0.013502842
64	0x3e99daf6	0.30049866
65	0x3e5e430b	0.21705262
66	0xbdfe75d8	-0.12424821
67	0x3dfb535b	0.12271758
68	0x3e25aab6	0.16178402
69	0xbe2c5251	-0.16828276
70	0x3e25d6e9	0.16195263
71	0x3e1a851c	0.1508984
72	0x3e9bd4d6	0.30435818
73	0x3cf46be5	0.029836604
74	0x3cbd52b9	0.023110734
75	0x3d4ba4b1	0.04971761
76	0xbe4069b3	-0.18790321
77	0xbe8fedb9	-0.28111055
78	0x3e03a90a	0.12857452
79	0xbd54eb5f	-0.05198228
80	0x3e90f46e	0.28311485
81	0xbdbd44e1	-0.09241653
82	0x3da7ad29	0.081873246
83	0xbdff8f8f	-0.124785535
84	0xbe6fde78	-0.23424709
85	0x3e2bed3c	0.16789716
86	0x3e001891	0.12509371
87	0xbe3d55f7	-0.18489824
88	0x3e47bc4c	0.19505423
89	0xbdeec8ca	-0.11659391
90	0x3c5dbf9b	0.013534452
91	0xbe7c6bda	-0.24650517
92	0x3b00eb6b	0.001967157
93	0x3e7017d0	0.23446584
94	0xbe5b74cf	-0.21431278
95	0xbeaba46c	-0.3352388
96	0x3de6dcca	0.11272581
97	0x3e3afb5c	0.18259948
98	0x3dcb534b	0.09927996
99	0xbea5d5ce	-0.32389683
100	0x3e4acad4	0.19803935
101	0xbeacaf70	-0.33727598
102	0x3dc608d6	0.09669654
103	0x3cb0a711	0.021564038
104	0x3e94598a	0.28974563
105	0xbd54b450	-0.051929772
106	0x3d9b5a27	0.075855546
107	0x3df0a852	0.117508546
108	0xbe633e28	-0.2219168
109	0x3d79cac8	0.060984403
110	0x3e479bb8	0.19492996
111	0xbe3be8fd	-0.18350597
112	0xbe3e5725	-0.1858793
113	0xbe0622bc	-0.13099188
114	0xbdb01166	-0.085970685
115	0xbea124cf	-0.31473395
116	0xbdb14bca	-0.08657034
117	0x3e680f91	0.22662188
118	0xbc259c35	-0.010108043
119	0xbd6d7ee7	-0.05798235
120	0xbe178139	-0.14795388
121	0x3d4e667c	0.050390705
122	0x3e4ea8a1	0.20181514
123	0xbd2a7c59	-0.041622493
124	0x3e27fba9	0.16404594
125	0x3e2f05c5	0.17092045
126	0x3e62f240	0.22162724
127	0x3e6a0b2a	0.22855821

get_operations.0.gnn_layers.0.project.2.weight f4 [128, 128]
0	0xbd05e43f	-0.032688376
1	0xbc5021be	-0.012703357
2	0x3dc269be	0.09492825
3	0xbad72203	-0.0016413335
4	0xbddbe00a	-0.107360914
5	0xbd83d79f	-0.06437611
6	0xbdb74c62	-0.08950116
7	0xbd160769	-0.03662816
8	0xbd3be981	-0.045876984
9	0x3d9ec3dd	0.07752202
10	0x3da401d6	0.08008163
11	0x3d14c780	0.03632307
12	0x3d91200a	0.07086189
13	0x3d91f745	0.07127241
14	0xbd7c1024	-0.06153883
15	0xbcb421ea	-0.021988828
16	0x3cfed21b	0.031106045
17	0x3d51a8bb	0.051186305
18	0x3d352aaf	0.04423016
19	0x3cc5deea	0.024154145
20	0x3caf9041	0.02143109
21	0xbcbac792	-0.02280024
22	0x3d1743e8	0.036929995
23	0xbd53ecd8	-0.051739544
24	0x3d8f5571	0.069987185
25	0x3d516667	0.05112305
26	0x3da468ac	0.08027777
27	0xbc25cf1f	-0.010120182
28	0xbd01b62d	-0.031667877
29	0x3ca37477	0.019952996
30	0xbd76f1cb	-0.060289185
31	0x3c89866e	0.016787734
32	0xbac55a66	-0.0015056848
33	0x3d2d69dd	0.042337287
34	0x3d09d62b	0.033651512
35	0xbd5b18fe	-0.05349063
36	0x3daf17da	0.08549471
37	0xbb9b50f6	-0.004739876
38	0x3a430553	0.0007439453
39	0x3bb2bf59	0.0054549393
40	0x3ce119cb	0.02747812
41	0x3d954155	0.07287852
42	0xbd9706ff	-0.07374381
43	0x3c78d5b9	0.015187674
44	0x3bd3adc8	0.0064599253
45	0x3cd6968a	0.02619483
46	0xbd7b5910	-0.061364233
47	0x3ccdd9ad	0.02512821
48	0x3c677ea3	0.014129314
49	0xbc1cc651	-0.009568767
50	0x3d5c6f75	0.05381723
51	0x3b703532	0.00366528
52	0x3d4b7d8c	0.049680278
53	0xbcc50bbe	-0.02405345
54	0xbd018200	-0.03161812
55	0xbce1cabe	-0.027562495
56	0xbcf1c049	-0.029510634
57	0x3db695a6	0.08915262
58	0xbb22a0d9	-0.002481511
59	0x3d57f4ab	0.052723568
60	0x3d8d167c	0.06889054
61	0xbcb93f1e	-0.022613104
62	0xbd2fe11b	-0.042939287
63	0x3a03f3ee	0.0005033602
64	0x3cc9f628	0.02465351
65	0x3be72ad9	0.0070546684
66	0x3d3097a9	0.043113384
67	0xbc9be647	-0.019030703
68	0xbd0549d0	-0.032541096
69	0x3d72d81c	0.05928813
70	0x3d2422ce	0.040072255
71	0xbd24d1b1	-0.04023904
72	0x3d07a37d	0.0331149
73	0x3cc5ff1e	0.0241695
74	0xbca91f39	-0.020644771
75	0xbd760379	-0.060061906
76	0x3d0bce2d	0.03413217
77	0x3d6ca7eb	0.057777327
78	0x3cfe966a	0.031077582
79	0x3d90de44	0.07073644
80	0xbbc89034	-0.006120706
81	0xbd8a4c16	-0.067527935
82	0x3c42c652	0.011888104
83	0xbcdf7691	-0.027278217
84	0xbd6d737e	-0.05797147
85	0xbcc84a4b	-0.024449488
86	0xbcbff9ad	-0.023434484
87	0xbd8b4dd3	-0.06801953
88	0x3d779558	0.06044516
89	0xbc80a23d	-0.015702361
90	0xbd7817a2	-0.060569413
91	0x3ad414e0	0.0016180538
92	0x3da65a5e	0.08122705
93	0x3c8c5419	0.017129945
94	0x3ba7acfc	0.005117057
95	0x3db04f05	0.08608822
96	0x3db174ff	0.08664893
97	0x3b96678e	0.0045899814
98	0xbdaeef79	-0.085417695
99	0x3d0e36b2	0.03472013
100	0xbdaaecca	-0.08345945
101	0x3c0c93a9	0.008580127
102	0x3dcf94ff	0.101358406
103	0x3c78f264	0.015194509
104	0xbdbe6e62	-0.092983976
105	0x3d9db982	0.077013984
106	0xbc0d5f66	-0.008628702
107	0x3cc3c136	0.023895841
108	0x3d1118bc	0.03542398
109	0x3d13b44a	0.03606061
110	0x3c0adb29	0.008475103
111	0x3d54cd07	0.05195334
112	0xbc6f8a8b	-0.014620434
113	0xbcff7082	-0.031181578
114	0xbd93bd8e	-0.07213889
115	0x3cb5410d	0.022125745
116	0x3d85f7df	0.06541418
117	0x3bd2a766	0.006428647
118	0xbd4fb0ea	-0.050705828
119	0x3d670ca3	0.056408536
120	0x3ca454b1	0.020059915
121	0x3cf7f223	0.030266827
122	0x3a27c701	0.00064001983
123	0xbdc48836	-0.09596293
124	0xbc85e265	-0.016343305
125	0xbd3a0ace	-0.04542046
126	0xbd9aa68f	-0.075513
127	0xbd4fd284	-0.050737873
128	0x3cdb3c31	0.0267621
129	0xbd8f3660	-0.06992793
130	0x3d8214a9	0.06351597
131	0x3d6dce72	0.05805821
132	0xbc5bc5b1	-0.0134138325
133	0xbd802946	-0.06257872
134	0xbb3fdbf7	-0.0029275396
135	0xbdaa0c14	-0.08303085
136	0x3d39cbf5	0.045360524
137	0x3d57d52b	0.052693527
138	0xbdbf4f73	-0.093413256
139	0xbdadfe82	-0.08495809
140	0x3cadb9cd	0.02120676
141	0xbcb77e00	-0.022398949
142	0x3d5380c0	0.051636457
143	0xbca8e514	-0.020617045
144	0x3c9526ad	0.018206919
145	0xbd53915e	-0.051652305
146	0x3d8bea5b	0.06831809
147	0x3d82e261	0.063908346
148	0x3d319bdd	0.043361533
149	0x3d13fad0	0.036127865
150	0x3d8b1ffc	0.0679321
151	0x3dac7798	0.08421248
152	0x3d4ab6a4	0.049490586
153	0x3d682760	0.056678176
154	0x3d551849	0.052025113
155	0xbb178077	-0.0023117342
156	0x3dadc208	0.08484274
157	0xbd4be56d	-0.049779344
158	0xbc4fa9f3	-0.012674796
159	0xbcb90aab	-0.022588095
160	0x3d814bc8	0.06313282
161	0xbd6f47c6	-0.058418058
162	0xbd1e12a6	-0.038592003
163	0xbd4932ee	-0.049120836
164	0x3bd05a63	0.006358431
165	0x3d060e03	0.032728206
166	0x3cf83e84	0.030303247
167	0x3cdc2c3e	0.026876565
168	0xbbd22582	-0.0064131627
169	0xbd90a079	-0.07061858
170	0xbd963c4b	-0.07335719
171	0xbd36d3a3	-0.044635426
172	0x3a7c4795	0.00096237037
173	0xbd584c79	-0.052807305
174	0xbd773317	-0.060351457
175	0x3d96b2eb	0.07358345
176	0x3d07f140	0.03318906
177	0xbcab1f2c	-0.020888887
178	0x3c9cca48	0.019139424
179	0x3d10fbee	0.03539651
180	0x3d90597d	0.070483185
181	0x3d992aa3	0.074788354
182	0xbcfde39e	-0.030992325
183	0x3d17d251	0.037065808
184	0x3d4b793b	0.04967616
185	0x3d6d8828	0.057991177
186	0x3d23a86b	0.039955538
187	0x3d4d77f0	0.05016321
188	0xbc736ae8	-0.014857031
189	0x3c24eeda	0.010066712
190	0xbda859b8	-0.082202375
191	0xbd5a8f98	-0.053359598
192	0x3cd4bb18	0.02596812
193	0x3d140193	0.036134314
194	0xbd951e16	-0.07281129
195	0x3ce40b6b	0.027837476
196	0x3c807028	0.01567848
197	0x3ca1a4bd	0.019731874
198	0xbd9de29e	-0.077092394
199	0xbdb3c361	-0.087775
200	0xbd22129c	-0.03956853
201	0xbd9597c6	-0.07304339
202	0x3c91e14f	0.01780763
203	0xba8f9df9	-0.0010957114
204	0xbb8a92da	-0.004228932
205	0xbd37d7f6	-0.04488369
206	0x3dba818b	0.091067396
207	0x3d9edbd6	0.07756774
208	0x3dbedc0c	0.09319314
209	0xbd638c36	-0.055553637
210	0xbce57a0f	-0.028012304
211	0x3d88ae2e	0.06673847
212	0xbce85ef0	-0.028365582
213	0x3cbac398	0.022798344
214	0x3d5f1248	0.054460794
215	0xbd2fd6cf	-0.042929467
216	0xbd198670	-0.037481725
217	0x3d3eef81	0.046615127
218	0xbd71b750	-0.05901271
219	0xb94e43ca	-0.00019670944
220	0x3da3201d	0.079651095
221	0xbd47a154	-0.04873784
222	0xbd6e04aa	-0.058109917
223	0xbc962b1c	-0.018331103
224	0xbd8e8e51	-0.069607385
225	0x3d4f08cb	0.050545495
226	0xbd510837	-0.051033225
227	0xbcb5cf82	-0.022193674
228	0xbda26863	-0.079300664
229	0xbc420a18	-0.011843227
230	0xbd24cd42	-0.04023481
231	0xbc9430cb	-0.018089673
232	0xbdb14fe5	-0.08657817
233	0xbd7474f5	-0.05968185
234	0x3d830837	0.06398051
235	0x3d4ea28f	0.050447997
236	0x3d566417	0.052341547
237	0x3d2de983	0.042459022
238	0x3dc466b2	0.095899
239	0x3d5b0d60	0.053479552
240	0x3d422336	0.04739686
241	0x3d87fbd8	0.06639832
242	0x3d4011de	0.04689204
243	0x3d8d18f7	0.06889527
244	0xbce7cf47	-0.02829708
245	0xbd53849f	-0.05164015
246	0xbd76c212	-0.060243674
247	0xbd49898a	-0.049203433
248	0xbcb24f94	-0.021766461
249	0xbbeaec51	-0.0071692844
250	0xbda14016	-0.078735515
251	0xbdaee63a	-0.08540006
252	0x3d9b79e6	0.0759161
253	0x3bd98d12	0.0066391313
254	0x3c3dfe16	0.011596223
255	0x3cdd244d	0.026994849

get_operations.0.gnn_layers.0.project.2.bias f4 [128]
0	0xbd6ffb89	-0.058589492
1	0xbd0db10a	-0.034592666
2	0x3d9d856e	0.07691465
3	0xbd822144	-0.06354001
4	0xbd4450d7	-0.047928657
5	0x3d9f4606	0.07777028
6	0xbd9b564a	-0.07584818
7	0x3cee95ea	0.029124219
8	0xbd5ebb1e	-0.054377668
9	0xbcbb2294	-0.022843637
10	0xbd6c142d	-0.05763643
11	0x3d4e9b9b	0.050441366
12	0xbbd1446b	-0.00638633
13	0x3d98ae64	0.07455137
14	0xbd2cfd65	-0.042233843
15	0xb954cb9a	-0.00020293743
16	0x3af3eee7	0.0018610627
17	0x3d9b0f73	0.07571306
18	0xbd2ba2aa	-0.041903175
19	0x3d37ef37	0.044905867
20	0x3dc5aa7a	0.096516564
21	0xbd1d8343	-0.03845526
22	0xbc3d996a	-0.011572221
23	0x3cda9f0e	0.026687171
24	0xbc8073d8	-0.015680239
25	0x3a8add6f	0.0010594557
26	0xbdb9b8e3	-0.090684675
27	0xbc8506e3	-0.016238635
28	0xbdad8e65	-0.08474425
29	0xbd8873c5	-0.06662706
30	0x3ce27f91	0.027648719
31	0x3d25ed18	0.040509313
32	0x3d979b68	0.07402688
33	0xbc011e5d	-0.007880774
34	0x3d0f451b	0.034978013
35	0xbda44653	-0.08021226
36	0xbd567de2	-0.052366145
37	0xbd69318e	-0.056932025
38	0x3d857039	0.065155454
39	0x3d8d7423	0.06906917
40	0xbd747917	-0.059685793
41	0x3d9c78b7	0.07640212
42	0x3d76a258	0.060213417
43	0xbc640228	-0.01391653
44	0x3d2545a8	0.040349633
45	0xbb8d34d6	-0.004309277
46	0xbcc94e7c	-0.024573557
47	0x3d99a85b	0.075028144
48	0x3d6ff42f	0.05858248
49	0xbda7cbc0	-0.08193159
50	0xbdbc1695	-0.09183995
51	0xbd9b0bf2	-0.07570638
52	0xbd898fa4	-0.067168504
53	0x3c8e11d3	0.017342484
54	0x3d1df214	0.03856094
55	0xbda01342	-0.07816173
56	0x3d6bfba4	0.05761303
57	0xbc3b795b	-0.011442508
58	0xbccd9db8	-0.02509962
59	0xbd39e83b	-0.045387488
60	0x3c02e4b7	0.0079891
61	0x3c1e1357	0.009648166
62	0xbb76e35d	-0.003767214
63	0x3d6f4dc7	0.058423784
64	0xbd0dcfb2	-0.0346219
65	0xbcf2db4f	-0.02964559
66	0x3dc6dcb3	0.09710064
67	0x3cc1fe84	0.023680933
68	0x3d888ce2	0.06667496
69	0x3c6a09dc	0.014284577
70	0xbcf7a1af	-0.030228464
71	0xbd381b7d	-0.04494809
72	0xbd220dc2	-0.0395639
73	0x3caa0dcb	0.02075853
74	0x3cb071bf	0.021538613
75	0x3d5bea9c	0.053690538
76	0xbda78a07	-0.081806235
77	0x3d9ab481	0.0755396
78	0x3c65aeaf	0.014018699
79	0x3cf9e5ef	0.030505149
80	0x3d82551b	0.06363889
81	0x3da6717e	0.08127116
82	0x3da11c39	0.07866711
83	0x3cf4d8cb	0.029888531
84	0xbd949cfb	-0.07256504
85	0x3c75b96c	0.014997821
86	0xbd7fc4e1	-0.062443618
87	0xbcb6d7d7	-0.022319717
88	0x3d9ce885	0.07661537
89	0xbd741bfb	-0.059596997
90	0x3b063577	0.0020478645
91	0xbc210b84	-0.009829406
92	0xbd5fea98	-0.054667085
93	0xbce2dded	-0.027693713
94	0x3d10e3ac	0.035373375
95	0x3d57c880	0.052681446
96	0xbd0c7910	-0.03429514
97	0x3c9db38b	0.019250652
98	0xbc74362f	-0.0149054965
99	0xbd509038	-0.050918788
100	0xbd92a25b	-0.07159873
101	0xbd6c5c7e	-0.057705395
102	0x3dabaf3b	0.08383032
103	0xbdc1be4b	-0.09460124
104	0x3cc55be4	0.024091668
105	0xbd0aa496	-0.033848368
106	0xba52beb9	-0.0008039284
107	0x3b90c017	0.00441743
108	0xbda78d2b	-0.081812225
109	0x3d7a2503	0.061070453
110	0x3d09ae1c	0.03361331
111	0xbd9c8738	-0.076429784
112	0x3d648f05	0.055800457
113	0x3d002d26	0.031293057
114	0xbd6e9b86	-0.058253787
115	0x3d57e9de	0.052713268
116	0x3d2b0380	0.041751385
117	0xbb4cad7a	-0.003123133
118	0x3c843ae7	0.016141368
119	0x3d0163ef	0.031589445
120	0x3d8b831a	0.06812115
121	0xbdacfdc5	-0.0844684
122	0xbd555815	-0.052085955
123	0x3c4c1d5b	0.012458171
124	0xbb4f257f	-0.0031608043
125	0xbd4b4e46	-0.049635194
126	0x3cc8b7bd	0.024501676
127	0xbc264923	-0.010149273

get_operations.0.gnn_layers.0.project.4.weight f4 [8, 128]
0	0xbda1f145	-0.07907347
1	0xbd90fb2d	-0.07079158
2	0xbdbd93c2	-0.09256698
3	0xbda3f1e6	-0.08005123
4	0xbd1b7320	-0.03795159
5	0xbd7b0b77	-0.06129023
6	0x3d9847fd	0.07435606
7	0x3dae13f9	0.08499903
8	0x3d7df527	0.062001374
9	0x3d6de988	0.05808404
10	0xbd986f3a	-0.0744309
11	0x3d9fce8b	0.07803067
12	0x3d877220	0.066135645
13	0xbd8e9c33	-0.069633864
14	0x3d59f403	0.053211223
15	0xbd120b82	-0.035655506
16	0xbd4855d3	-0.048909973
17	0x3d62a309	0.055331264
18	0xbcbeae24	-0.023276396
19	0xbd6b6991	-0.057473723
20	0xbc2f8362	-0.010712476
21	0xbda0b127	-0.07846289
22	0xbd5c9da7	-0.053861286
23	0x3c30a7d3	0.0107822
24	0xbdbed673	-0.09318247
25	0x3d93fd14	0.07226005
26	0xbd79b934	-0.06096764
27	0xbb58b7d1	-0.0033068547
28	0x3c87a0bd	0.016556138
29	0xbd51f75d	-0.051261295
30	0xbc982dca	-0.018576521
31	0x3d473be3	0.048641097
32	0xbd861696	-0.06547277
33	0x3c92de02	0.017928127
34	0xbd64ea3d	-0.05588745
35	0x3d29aba1	0.041423444
36	0xbd2fb46b	-0.04289667
37	0x3d1280e4	0.03576745
38	0x3d4da6bc	0.05020784
39	0x3d707b63	0.05871142
40	0x3dc57da9	0.096431084
41	0xbcbd0a9f	-0.023076354
42	0x3c11f4ee	0.008908493
43	0xbd85c65f	-0.06531977
44	0xbc4300be	-0.011902032
45	0xbd9600d9	-0.073243804
46	0x3c81be9b	0.015837958
47	0x3d2083cd	0.039188195
48	0xbd0e3b03	-0.034724247
49	0xbd920a4d	-0.07130871
50	0xbd595e7e	-0.05306863
51	0x3bfb310c	0.007665759
52	0xbda668e7	-0.08125477
53	0xbb740037	-0.0037231573
54	0xbbe80d5a	-0.0070816698
55	0xbd43b78f	-0.047782477
56	0xbd99d5b0	-0.07511461
57	0x3d82e7ba	0.063918546
58	0xbc773fee	-0.015090926
59	0x3da29067	0.07937699
60	0xbdaa973e	-0.083296284
61	0xbd94b065	-0.07260207
62	0xbdaed481	-0.08536626
63	0x3d0ff363	0.03514422
64	0x3ce8237b	0.02833723
65	0x3d863c06	0.06554417
66	0x3dd1a86d	0.10237203
67	0x3d915d70	0.070979
68	0x3d3775ec	0.044790193
69	0xbb882c1e	-0.00415565
70	0xba8c13c0	-0.0010687038
71	0x3d6e3678	0.058157414
72	0x3cc017de	0.02344888
73	0x3d424a95	0.04743441
74	0x3d2cb98a	0.04216913
75	0x3da88138	0.082277715
76	0xbd589271	-0.052874032
77	0xbd9778aa	-0.07396062
78	0x3d16b3e7	0.036792662
79	0xbcbe5d5f	-0.023237882
80	0xbdcaaba6	-0.098960206
81	0x3c1332ef	0.0089843115
82	0xbdb9f1ae	-0.090793
83	0x3d70342e	0.058643512
84	0xbd56d093	-0.052445006
85	0xbb548ba2	-0.003243186
86	0xbd07912e	-0.03309744
87	0x3c9d958b	0.019236347
88	0xbccc6aa5	-0.024953196
89	0xbd6c7e92	-0.057737894
90	0xbafab7ff	-0.0019128321
91	0xbd91b9f5	-0.071155466
92	0xbdcb923f	-0.099400036
93	0x3ca1f077	0.019767983
94	0xbd6d4026	-0.057922505
95	0x3b3321e7	0.002733344
96	0xbda9d82a	-0.08293183
97	0x3d9a8172	0.07544221
98	0xbdc5c8fc	-0.09657475
99	0xbd83f3fa	-0.06443019
100	0xbd14d5a1	-0.036336545
101	0x3d5ff20f	0.054674204
102	0xbc445ee2	-0.011985512
103	0x3c3c9b04	0.011511568
104	0xbd9c92f9	-0.0764522
105	0xbd50dc5c	-0.0509914
106	0xbd8fcfbe	-0.070220456
107	0xbdbf472e	-0.09339748
108	0x3cdfbfc6	0.027313124
109	0x3c0ca297	0.008583686
110	0x3cba9bbb	0.022779336
111	0xbdc14ab8	-0.094380796
112	0x3d00820d	0.031374026
113	0xbc37ee2d	-0.011226219
114	0x3c5c4d2b	0.013446133
115	0x3d5cbd54	0.053891495
116	0x3d6307dd	0.05542742
117	0xbd602969	-0.05472699
118	0x3d19422f	0.037416633
119	0xbda6bfd3	-0.08142056
120	0x3d85f74f	0.06541311
121	0xbced65e7	-0.028979255
122	0xbdb3bde6	-0.08776455
123	0x3d8b5b56	0.0680453
124	0x3d48e9b4	0.049051
125	0x3d0be388	0.034152538
126	0xbd3e0cdb	-0.04639898
127	0x3d688253	0.05676491
128	0xbd39640c	-0.045261428
129	0x3d2fd047	0.042923238
130	0xbd539122	-0.05165208
131	0x3d64fbbc	0.055904135
132	0x3d62c68f	0.05536514
133	0x3d27a4fd	0.04092883
134	0xbc84d4d7	-0.016214771
135	0x3d683be4	0.05669774
136	0x3d6d1182	0.057878025
137	0xbd98afc1	-0.074553974
138	0x3d0b4faa	0.03401152
139	0xbc6b13e5	-0.014348005
140	0x3ca48bb3	0.020086145
141	0xbca7c601	-0.020480158
142	0xbd139fc3	-0.036041033
143	0xbc110578	-0.0088514015
144	0x3d31cba0	0.043407083
145	0xbd54de7d	-0.051969994
146	0x3ca10707	0.019656671
147	0x3d21d659	0.03951106
148	0xbdbea50c	-0.09308824
149	0x3d766eee	0.060164385
150	0x3c05fe07	0.008178241
151	0x3ce2f6ed	0.027705634
152	0x3acb275d	0.0015499402
153	0xbd43299c	-0.047647104
154	0x3c45c230	0.012070224
155	0xbd149da5	-0.036283154
156	0x3cadaf16	0.021201652
157	0xbd85a039	-0.06524701
158	0x3d1e6fa3	0.038680684
159	0xbd22002f	-0.039550956
160	0xbb39c1ff	-0.002834439
161	0x3cd682bb	0.026185384
162	0x3d671800	0.056419373
163	0xbda962a0	-0.08270764
164	0xbd825175	-0.06363193
165	0x3db31880	0.087449074
166	0x3d96396c	0.07335171
167	0xbd8b845c	-0.06812355
168	0x3d9368bb	0.0719771
169	0x3c8e173f	0.017345069
170	0xbd31d6e8	-0.04341784
171	0xbb50b2fa	-0.003184496
172	0x3d372657	0.044714298
173	0xbd014fd8	-0.031570286
174	0xbdd0308e	-0.10165511
175	0x3b7964da	0.0038054497
176	0x3d5b7ff6	0.05358883
177	0x3c973a5c	0.018460445
178	0x3dcdc2ed	0.10046945
179	0xbd640789	-0.05567125
180	0xbd76bc27	-0.06023803
181	0xbb464848	-0.0030255485
182	0x3d2ef6f1	0.04271597
183	0xbd2c1dc4	-0.042020574
184	0xbdd48221	-0.103763826
185	0x3d817921	0.06321932
186	0xbda3cb82	-0.079978004
187	0xbb05a4dd	-0.0020392456
188	0xbd037652	-0.03209526
189	0xbdaa9eda	-0.0833108
190	0x3cb7b3be	0.022424575
191	0x3b1cf771	0.0023951198
192	0x3d2a36ba	0.041556098
193	0x3c90d9ae	0.017681923
194	0x3ca95419	0.020669984
195	0xbd4c4b33	-0.049876403
196	0x3d0a7a1b	0.033807855
197	0xbd4b4690	-0.04962784
198	0x3d3a5a9d	0.04549657
199	0xbc10658f	-0.008813276
200	0x3d4752de	0.048663013
201	0x3d01826a	0.031618513
202	0xbd31d02b	-0.043411415
203	0x3d39d88b	0.045372527
204	0xbcc5cc1e	-0.024145182
205	0xbd81f742	-0.06345989
206	0x3d9077f3	0.070541285
207	0x3d99fd01	0.0751896
208	0x3c41f6a3	0.011838588
209	0x3dd5d520	0.10441041
210	0x3cbb2a1a	0.022847224
211	0x3d5d83c2	0.054080732
212	0xbd21450f	-0.0393725
213	0x3d1c4d0a	0.038159408
214	0xbdc8680d	-0.09785471
215	0x3c3bd898	0.011465214
216	0x3d25987d	0.040428627
217	0x3d37c18e	0.044862323
218	0xbd227307	-0.03966048
219	0xbda6ca3b	-0.08144041
220	0xbd6f764f	-0.058462437
221	0x3cdd455a	0.027010608
222	0x3967e172	0.00022113862
223	0x3c6576bb	0.014005358
224	0x3d7ac6f4	0.061224893
225	0xbd961528	-0.07328254
226	0xbd52de72	-0.05148167
227	0x3d35514d	0.044266988
228	0xbd6e5ed4	-0.058195904
229	0x3ce4f7fa	0.027950276
230	0xbd87732a	-0.06613763
231	0x3d27ea37	0.04099485
232	0xbd99a19a	-0.07501526
233	0xbd7dfc0c	-0.06200795
234	0x3bd03280	0.0063536763
235	0xbc27995f	-0.010229438
236	0x3d0bca3c	0.034128413
237	0xbd298ea5	-0.041395802
238	0x3cddf2d8	0.027093336
239	0xbdcc7ef2	-0.099851504
240	0xbcc2b4fa	-0.023767937
241	0xbd6f4814	-0.05841835
242	0x3dc5cafb	0.09657856
243	0xbda27c2b	-0.079338394
244	0xbcd59093	-0.026069915
245	0x3c76e5b8	0.015069418
246	0xbd48e89a	-0.04904995
247	0xbd8d23b8	-0.068915784
248	0x3d467b35	0.048457343
249	0xbd5667ab	-0.05234496
250	0xbd750280	-0.059816837
251	0x3dc94b1d	0.0982878
252	0xbd037bb8	-0.03210041
253	0xbd92e968	-0.07173425
254	0xbcfcc115	-0.030853787
255	0x3d93c2fc	0.07214925

get_operations.0.gnn_layers.0.project.4.bias f4 [8]
0	0x3d2066f6	0.03916069
1	0xbc7ad946	-0.015310591
2	0x3d082778	0.033240765
3	0xbd767e96	-0.060179316
4	0xbcddd3fd	-0.027078623
5	0xbcd968ea	-0.026539285
6	0xbdafd83a	-0.08586164
7	0x3d89bee7	0.06725865

get_operations.0.gnn_layers.1.project.0.weight f4 [128, 6]
0	0xbeb31303	-0.34975442
1	0x3dd42733	0.10359039
2	0x3eb25d93	0.34837016
3	0xbe9c85ac	-0.30570734
4	0x3e7700fc	0.2412147
5	0xbe93559c	-0.28776252
6	0xbcf4e1ac	-0.029892765
7	0x3eaa8306	0.33303088
8	0x3e84b24f	0.2591729
9	0x3ecdd47c	0.40201175
10	0xbe8f4761	-0.27984145
11	0xbe69c38a	-0.22828498
12	0xbe710dbd	-0.23540397
13	0xbe93620f	-0.2878575
14	0x3c83983c	0.016063802
15	0x3e3fddc9	0.18736948
16	0xbe8deee3	-0.2772132
17	0xbd12f849	-0.035881314
18	0x3d2577d2	0.040397473
19	0xbdc62dc5	-0.096766986
20	0xbea8aceb	-0.32944426
21	0x3e0ce76b	0.13760154
22	0x3d876a09	0.066120215
23	0xbeb418af	-0.35175082
24	0x3eba74ed	0.36417332
25	0xbe8bb074	-0.2728306
26	0x3ecab6f1	0.39592698
27	0x3eb14cd6	0.34628934
28	0xbdeab974	-0.114611536
29	0xbe90f5e6	-0.28312606
30	0xbed87dad	-0.42283383
31	0xbd6f9848	-0.058494836
32	0x3e93f324	0.2889644
33	0xba03749b	-0.0005014629
34	0xbe834ce0	-0.25644588
35	0xbe03e0ae	-0.12878677
36	0xbe455d44	-0.1927386
37	0x3e85489a	0.26031953
38	0x3e7605c8	0.24025643
39	0x3e9a92cf	0.3019013
40	0xbe2ce50f	-0.16884254
41	0x3cea4891	0.028599055
42	0x3ed3aade	0.413413
43	0xbec37258	-0.38173175
44	0xbe9ffc3e	-0.31247133
45	0xbe4cd396	-0.20002589
46	0x3e89fde9	0.2695153
47	0x3bf3799a	0.0074302675
48	0x3ea53366	0.32265776
49	0xbe85c239	-0.26124743
50	0x3dca3b32	0.09874572
51	0xbe54ce09	-0.20781721
52	0xbeb38279	-0.3506048
53	0xbe45ab62	-0.19303659
54	0x3e90256a	0.28153545
55	0xbe379f24	-0.17931801
56	0xbcdf31a7	-0.027245356
57	0x3df74c8a	0.120751455
58	0x3ea9a07c	0.33130252
59	0xbd99dbdd	-0.07512639
60	0xbe1c9593	-0.15291433
61	0xbcfc4b49	-0.030797618
62	0x3e8fdb11	0.28096822
63	0x3ebdb95d	0.37055483
64	0x3e929c76	0.28634995
65	0x3e314ec6	0.17315206
66	0xbdc92344	-0.098211795
67	0x3e6dc44e	0.23219416
68	0x3e5f9693	0.21834783
69	0x3e108190	0.14111924
70	0x3e0b534b	0.13605992
71	0xbe5bcf82	-0.21465877
72	0x3daf04b9	0.08545823
73	0x3e99daa7	0.3004963
74	0xbe0b5a7e	-0.13608739
75	0x3db9c732	0.090711966
76	0xbe8b56f4	-0.27214777
77	0x3beba0b5	0.0071907886
78	0xbe5fd39e	-0.2185807
79	0x3e8f76b2	0.28020245
80	0x3da17f33	0.078855895
81	0xbe58ff8c	-0.21191233
82	0xbe0e89d2	-0.13919762
83	0xbe5ea8f2	-0.21744135
84	0xbe7013da	-0.23445073
85	0xbebbe3c7	-0.36697218
86	0x3e178bf5	0.14799483
87	0x3e8df8dd	0.2772893
88	0x3ec60801	0.38677981
89	0x3e7b693d	0.24551864
90	0x3ea06a86	0.3133127
91	0xbe4b487c	-0.1985187
92	0xbe841889	-0.2579997
93	0xbe9a6f98	-0.30163264
94	0x3d5b5bd0	0.053554356
95	0xbddab2d2	-0.106786385
96	0x3da4d452	0.080483094
97	0xbea9da9d	-0.331746
98	0xbe6f8f51	-0.23394515
99	0x3e24d254	0.16095859
100	0xbca2a6ff	-0.01985502
101	0x3ec39407	0.38198873
102	0x3eb6ad62	0.35679156
103	0xbc00d5a1	-0.007863433
104	0xbe213848	-0.15744126
105	0x3e82e3f7	0.25564548
106	0x3ebbddca	0.3669265
107	0x3b83fd56	0.0040280027
108	0xbe98e9a9	-0.2986577
109	0xbd89f162	-0.06735493
110	0x3cd32906	0.025776397
111	0xbeb94217	-0.36183235
112	0xbd737d97	-0.059445944
113	0x3dc44b35	0.09584657
114	0xbde11318	-0.1098997
115	0xbedc3be4	-0.43014443
116	0x3d2b70bc	0.04185556
117	0xbebf04fc	-0.3730849
118	0x3e8574a8	0.26065564
119	0x3e5527a1	0.20815898
120	0xbec47e3d	-0.38377562
121	0xbd8f8e03	-0.070095085
122	0xbda8e209	-0.08246238
123	0xbe5b0fe6	-0.21392784
124	0x3eb5c188	0.35499215
125	0x3e01513e	0.12628648
126	0xbe9bf563	-0.30460653
127	0x3deedced	0.11663232
128	0x3e85d10c	0.26136053
129	0x3e3aa491	0.1822684
130	0x3ebe8b48	0.37215638
131	0xbe8539d3	-0.2602068
132	0xbc93d9e8	-0.018048242
133	0x3e968752	0.29400116
134	0xbea1df8a	-0.3161586
135	0x3b180663	0.0023197166
136	0xbd8fcb45	-0.070211925
137	0xbe986880	-0.29767227
138	0x3e4462a7	0.19178258
139	0x3ec93398	0.39297175
140	0xbe2bae50	-0.16765714
141	0xbeb6cd2a	-0.35703403
142	0x3e30321e	0.17206618
143	0x3dca791d	0.09886382
144	0xbe956287	-0.29176733
145	0xbe6ad80c	-0.22933978
146	0x3e9e0ff1	0.30871537
147	0xbe4098b6	-0.18808255
148	0xbe946266	-0.28981322
149	0xbbafbec6	-0.005363318
150	0xbe73719f	-0.23773812
151	0xbece4561	-0.40287307
152	0xbc91fa66	-0.017819595
153	0xbe4ddc47	-0.2010356
154	0x3e9c2bc9	0.30502155
155	0x3d353be4	0.04424657
156	0xbe13adb2	-0.14421728
157	0xbda78719	-0.08180065
158	0x3e4bf00e	0.19915792
159	0xbec799df	-0.38984582
160	0xbca9c138	-0.020722017
161	0x3df85541	0.12125636
162	0x3e4222c5	0.18958576
163	0x3e879278	0.26478934
164	0x3e289aac	0.16465253
165	0xbe2edf57	-0.17077385
166	0xbe2b1466	-0.16707
167	0xbe8a0028	-0.26953244
168	0x3eb45513	0.35221156
169	0xbec537ba	-0.38519078
170	0xbe8553c1	-0.26040462
171	0x3e886254	0.26637518
172	0x3d8be447	0.0683065
173	0xbea03ec9	-0.312979
174	0x3e785cee	0.242542
175	0x3e02f9fb	0.12790672
176	0x3d8bbc72	0.068230525
177	0xbe7d8e75	-0.24761374
178	0xbd0abd2a	-0.033871807
179	0xbed7059a	-0.4199646
180	0xbe836ba0	-0.2566805
181	0x3e13a8c3	0.14419846
182	0xbec75713	-0.3893362
183	0xbe1c0b78	-0.1523875
184	0x3e63ae83	0.2223454
185	0x3e5d4bcc	0.21610945
186	0x3ec38dd5	0.38194147
187	0x3dad907c	0.08474824
188	0x3c87dc1d	0.01658445
189	0x3e8f7516	0.28019017
190	0xbe8fda23	-0.28096113
191	0xbe096074	-0.134157
192	0x3d003af8	0.031306237
193	0xbe8183ae	-0.25295776
194	0xbe786e17	-0.24260746
195	0xbe347725	-0.17623575
196	0xbeb2c458	-0.34915423
197	0xbe6d77ef	-0.23190282
198	0xbe8b3cd5	-0.2719485
199	0x3e1ebb0d	0.15501042
200	0x3e93f412	0.28897148
201	0x3da11f5b	0.07867309
202	0xbe45857b	-0.192892
203	0x3e8cf805	0.27532974
204	0x3d08b802	0.03337861
205	0xbe3351ab	-0.17511623
206	0x3dbdd1e9	0.09268553
207	0xbeb56cbd	-0.35434523
208	0x3e4add20	0.19810915
209	0xbd785d73	-0.060635995
210	0xbe1ab523	-0.1510816
211	0x3e735f1f	0.23766755
212	0xbd12a103	-0.035798084
213	0xbdddb992	-0.1082641
214	0x3edacb45	0.42733207
215	0xbe0fea63	-0.14054255
216	0x3ea89192	0.3292356
217	0xbec0d379	-0.3766134
218	0xbe8873bc	-0.26650798
219	0x3ec0d3f3	0.37661704
220	0x3c35bb92	0.0110920835
221	0xbd3637c4	-0.044486776
222	0xbdde13fb	-0.10843655
223	0x3ecbee00	0.39830017
224	0x3e60c1ef	0.2194898
225	0x3e3db8c5	0.18527515
226	0x3af7256f	0.001885576
227	0xbcf4fd2c	-0.029905878
228	0x3ebea8e3	0.37238225
229	0x3e3b6077	0.18298517
230	0xbe2dc607	-0.16970073
231	0x3e80b9c0	0.25141716
232	0xbe724af4	-0.23661405
233	0xbdac4d83	-0.08413222
234	0xbe7b72ef	-0.24555562
235	0x3e92ef77	0.28698322
236	0x3e8e9942	0.278513
237	0x3e299ce7	0.1656376
238	0xbe0988ff	-0.13431166
239	0xbe9284ad	-0.2861685
240	0x3e5c6d8d	0.21526165
241	0x3c0e11e8	0.008671261
242	0xbdf0c448	-0.11756188
243	0xbe85cb97	-0.2613189
244	0x3c34fb94	0.011046309
245	0xbea9ef52	-0.331904
246	0xbce80e54	-0.028327145
247	0x3e7cedd7	0.24700104
248	0x3e3ca176	0.18420967
249	0x3e092337	0.1339234
250	0xbe119c37	-0.14219747
251	0x3e48f43d	0.1962442
252	0xbd489d2c	-0.048978016
253	0xbd94ce10	-0.07265866
254	0x3ea57c78	0.32321525
255	0x3d9648d5	0.0733811

get_operations.0.gnn_layers.1.project.0.bias f4 [128]
0	0x3e3d489b	0.18484728
1	0xbe8551bc	-0.2603892
2	0x3e108c24	0.1411596
3	0x3ec59ce4	0.3859626
4	0xbe325f85	-0.1741925
5	0xbde3d0ec	-0.11123833
6	0x3d45fb77	0.04833552
7	0x3e8027ac	0.25030267
8	0xb95e10a3	-0.00021177767
9	0x3c4a1b5b	0.012335624
10	0x3e0ac3e6	0.13551292
11	0x3e6b3cc6	0.22972402
12	0x3e876f9c	0.2645234
13	0xbde6e8bc	-0.11274859
14	0x3ce4ebf2	0.027944539
15	0xbd9e8611	-0.07740415
16	0xbe410f68	-0.18853533
17	0xbe907123	-0.28211316
18	0xbec14ee1	-0.37755492
19	0xbe1d82fd	-0.15382
20	0xbe68a830	-0.22720408
21	0xbe905618	-0.28190684
22	0xbeb60772	-0.35552555
23	0xbd932d1f	-0.071863405
24	0xbe41db1e	-0.18931243
25	0xbe412222	-0.18860677
26	0xbd62e9a6	-0.055398606
27	0x3e9c4b98	0.30526423
28	0xbe4cc9d0	-0.1999886
29	0xbd8f9347	-0.07010513
30	0xbeaaf360	-0.33388805
31	0x3ea6259b	0.32450566
32	0xbe966b7b	-0.29378876
33	0xbeca0e76	-0.39464158
34	0x3e620e19	0.2207569
35	0x3e019032	0.12652662
36	0x3ecf9187	0.40540716
37	0x3e874e53	0.26426944
38	0x3bc1ddd5	0.005916337
39	0xbea2f2c7	-0.3182585
40	0x3e8c8611	0.27446035
41	0x3d0a41db	0.03375421
42	0xbe82dbc5	-0.25558296
43	0xbd298e66	-0.041395567
44	0x3ec78e12	0.3897558
45	0xbe92c09c	-0.28662574
46	0x3e51702c	0.20452946
47	0xbeb8bd27	-0.36081812
48	0xbe566784	-0.20937926
49	0x3e51b717	0.2048
50	0xbdc4ef6d	-0.09615979
51	0x3e3dbe7e	0.18529698
52	0x3d67ee9a	0.056624033
53	0x3c5181f1	0.012787328
54	0x3eb71975	0.3576161
55	0xbec727f9	-0.38897684
56	0x3e434b18	0.19071615
57	0xbe8df4dd	-0.27725878
58	0x3de3a25e	0.111149535
59	0xbe834571	-0.25638917
60	0xbe075632	-0.13216475
61	0xbdfe9810	-0.12431347
62	0x3e066d5e	0.13127658
63	0x3ec7e25b	0.39039883
64	0xbea1509f	-0.31506822
65	0xbea105b9	-0.3144968
66	0x3e4ba9d2	0.19889
67	0x3d46b1a4	0.048509255
68	0x3e449398	0.19196928
69	0x3e8fe2d3	0.2810274
70	0xbe8f6cea	-0.28012782
71	0x3dc40248	0.095707476
72	0x3e8e3212	0.27772576
73	0xbdcb5f63	-0.09930303
74	0x3d7fc050	0.062439263
75	0x3e546c75	0.20744498
76	0x3eaf5a1b	0.34248433
77	0x3d1ddad9	0.038538788
78	0xbeb940ab	-0.3618215
79	0x3e92b337	0.28652355
80	0x3e87e348	0.2654059
81	0xbe14ede3	-0.14543872
82	0x3ec97496	0.3934676
83	0x3d3416a6	0.04396691
84	0xbe5649eb	-0.20926635
85	0x3e6c1b1f	0.23057221
86	0xbdccc53f	-0.09998559
87	0xbca87f3b	-0.02056848
88	0xbe9aa390	-0.30202913
89	0xbc73fed1	-0.014892296
90	0xbdac7a5a	-0.08421774
91	0x3e9395b8	0.28825164
92	0xbd21282f	-0.039344963
93	0x3e5845d3	0.21120386
94	0x3dfff18b	0.124972425
95	0x3df97b39	0.12181706
96	0xbe23f5f9	-0.160118
97	0xbe69db0c	-0.22837466
98	0xbd6a346c	-0.0571789
99	0x3e47929f	0.19489525
100	0xbeb989cf	-0.36237952
101	0xbe1f1be3	-0.15537982
102	0x3e4983dd	0.19679208
103	0x3d2d40a4	0.042297974
104	0xbe3786ac	-0.17922467
105	0xbe8cb83d	-0.27484313
106	0xbea4af84	-0.32165158
107	0x3eaa19b1	0.33222726
108	0x3ead9ff6	0.33911103
109	0x3e2788e7	0.16360818
110	0xbe0d2644	-0.13784128
111	0x3ecbc4fa	0.3979872
112	0xbdc25177	-0.094881944
113	0x3dee3fe9	0.11633284
114	0xbd446117	-0.047944155
115	0xbdb95335	-0.090490736
116	0x3e95eb49	0.2928107
117	0xbe80fd94	-0.25193465
118	0xbda7bd28	-0.081903756
119	0xbcef5665	-0.029216
120	0x3d801998	0.062548816
121	0x3c3afba8	0.011412539
122	0x3d83ef91	0.06442178
123	0x3dac6af8	0.0841884
124	0x3dc7c31b	0.0975401
125	0xbe93a771	-0.28838685
126	0xbdfba777	-0.12287801
127	0x3d6cc935	0.057809073
