solutions/JSP_Nips/15_15_1_99.pth (torch, 93026 bytes, 30 tensors)

feature_extract.mlps.0.linears.0.weight f4 [64, 2]
000000 a4 d0 9b be 43 29 d5 3e 96 b9 00 3f b2 74 70 be
       -0.30432618 0.41633043 0.5028318 -0.23482016
000010 e6 8f 8b 3d 80 d8 db be bc b9 08 bf 87 b4 b2 3e
       0.06814556 -0.42938614 -0.5340841 0.34903356
000020 06 c1 01 3f 3e 33 ca bc e2 c3 31 bf ac b4 4b be
       0.50685155 -0.024682637 -0.6943952 -0.1989314
000030 23 82 d8 be 8c d2 44 be 6c 97 54 be 1a 37 15 bf
       -0.42286786 -0.19220942 -0.20760888 -0.58287203
000040 ed 7f c4 be b3 b5 92 3e 40 39 b8 be c3 ee a8 be
       -0.3837885 0.2865425 -0.35981178 -0.3299466
000050 e9 a9 cb be 54 66 0d 3f 08 95 a0 be 5a 1a 5d be
       -0.3977807 0.55234265 -0.31363702 -0.21592084
000060 17 71 0c be 93 e5 2a 3f 8b 6f d3 be 7b fc 7d 3e
       -0.13715015 0.6675655 -0.41296038 0.24803345
000070 6b cc 1b 3f 50 2e 16 3e 4d 6d 34 3f 8a 54 b0 be
       0.6085879 0.14666104 0.7047928 -0.34439498
000080 f5 23 0a 3f b8 d2 1e bf c6 61 c9 3e be 57 05 bf
       0.53961116 -0.6204028 0.39332408 -0.5208701
000090 00 ad 0e bf e5 30 ff 3d f8 70 01 bc c2 72 65 3e
       -0.5573273 0.12460498 -0.007900469 0.22407058
0000a0 91 09 89 3c f9 2d 56 3c 04 f8 b2 be 97 0b 63 3e
       0.016728194 0.013072484 -0.34954846 0.2217239
0000b0 3b 12 5b be 51 5e 12 3e 06 7c b9 3c a5 46 27 bd
       -0.21393673 0.14293791 0.022642147 -0.040838856
0000c0 c4 bd a0 be 16 48 01 3f 75 fb 21 bf 7f ef 87 bc
       -0.3139478 0.5050062 -0.6327432 -0.016593693
0000d0 0f c2 c4 3e a8 3b 33 be c2 52 f3 3e 37 f7 f7 be
       0.38429305 -0.17503226 0.47524077 -0.48430797
0000e0 69 d2 1a bf 05 51 a8 be 6e 46 04 bf e5 e6 d5 bc
       -0.6047731 -0.32874313 -0.5166997 -0.026111076
0000f0 cb fc 93 be 0a ba 62 3e 6b e1 dc 3e 16 a8 05 3e
       -0.28903803 0.22141281 0.4314073 0.13052401
000100 60 a0 99 bc 31 a9 88 be a5 c8 b8 be 83 d4 0d 3f
       -0.01875323 -0.26691583 -0.3609058 0.5540239
000110 bf 50 03 3f 32 cb b6 3e 08 11 a3 be de ba 85 be
       0.51295084 0.357019 -0.3184893 -0.2611913
000120 af f5 a1 3d 29 54 4e 3d 72 f3 44 bd 3b db db be
       0.079081886 0.05037323 -0.04808373 -0.42940697
000130 fc b6 f3 be c2 94 ba 3e 58 55 cb 3e 3e 13 11 3f
       -0.47600543 0.36441618 0.3971355 0.56669986
000140 1d 71 29 3f f4 d7 25 be 3c 81 69 bd af 88 f2 3c
       0.6618822 -0.16195661 -0.057008013 0.029606191
000150 f4 34 16 3e ed 65 0f 3e 82 85 03 3d 4b 31 aa be
       0.14668638 0.14003725 0.032109745 -0.33240733
000160 83 3d 39 bc b6 c6 c2 3e 79 f5 a7 3e a9 80 22 3f
       -0.011306169 0.3804223 0.32804468 0.6347757
000170 87 70 a3 3e a1 71 2c bf d1 26 97 3e c6 fd 0c bf
       0.3192179 -0.67360884 0.29521802 -0.5507473
000180 2f ce 0c 3f c8 22 0f bf 1f 55 0d bf 22 94 2a 3e
       0.5500211 -0.55912447 -0.5520801 0.1665807
000190 81 e1 0a 3e 14 87 02 3f a7 24 f0 be 3d 96 0b 3f
       0.13562585 0.5098736 -0.46902964 0.5452612
0001a0 45 62 f9 3d 4c 73 fb bd 79 4a 02 bf b3 0b ab 3e
       0.121769466 -0.122778505 -0.50894886 0.33407363
0001b0 bb 32 bc 3d 44 f8 0e 3f 23 56 d0 be a9 00 1a 3f
       0.091893636 0.55847573 -0.40690717 0.6015726
0001c0 51 97 f5 be 50 82 d2 be c3 1b c7 3e 2d 76 c4 bd
       -0.47967008 -0.41115046 0.38888368 -0.09592853
0001d0 68 26 dd be 4c a5 4d bd ee fe 2f 3f 1a e8 13 bd
       -0.43193364 -0.050206468 0.68748367 -0.03611002
0001e0 dd ce 77 3e fc 76 2a be 7f 60 28 3e 1c c1 2f 3f
       0.24200006 -0.16646951 0.1644306 0.68654037
0001f0 7b a7 af 3e 2d dc fb be f5 b3 d6 be 57 b0 d6 bd
       0.34307465 -0.49191418 -0.4193417 -0.10482853

feature_extract.mlps.0.linears.0.bias f4 [64]
000000 f1 f7 a3 3e 20 de c7 be 0f 26 46 bd 92 0a b2 3e
       0.32025102 -0.39036655 -0.04837614 0.3477369
000010 14 0a b2 be 11 21 c5 be 8b 3e 4a 3c 80 86 14 bf
       -0.34773314 -0.3850179 0.012344013 -0.5801773
000020 68 1a 96 3e 4d fd 48 be 85 71 10 3f c9 37 58 3d
       0.2931702 -0.19627877 0.5642322 0.052787576
000030 69 35 ad 3e 1a a6 f9 bd db 50 81 be b1 19 9c be
       0.3382981 -0.121898845 -0.25257 -0.3048835
000040 f6 12 b0 3e 5c 94 24 3f b6 90 82 3e 1b 97 26 be
       0.34389466 0.6428888 0.2550103 -0.1626858
000050 d4 22 bb 3e 8f 28 09 bf 73 af 1b bf 69 54 6e be
       0.3655001 -0.5357751 -0.6081459 -0.23274387
000060 5b 95 a0 3e c1 63 97 bd 97 4c fa be 14 ed 15 bf
       0.3136395 -0.073920734 -0.48886558 -0.5856488
000070 3d 4a b4 3e e8 cd bb be cd 72 92 be 76 cb 21 3f
       0.3521289 -0.36680532 -0.2860321 0.6320108
000080 f2 c5 d3 3d 84 a9 d3 be c8 28 6d 3d 18 e2 c6 3e
       0.103404894 -0.41340268 0.05790022 0.3884437
000090 54 a1 a8 be 91 4c e2 be c9 7e 29 bf ed b4 19 bf
       -0.32935584 -0.4419904 -0.66209084 -0.60041696
0000a0 7b e8 06 bf 47 10 bb 3e 74 23 82 3d ab 3f 5d 3e
       -0.5269849 0.36535856 0.063544184 0.21606319
0000b0 33 fe cd 3e c7 3a 23 3f 09 4e 41 be 5a a4 21 3f
       0.40233 0.6376156 -0.18877424 0.63141406
0000c0 d5 d6 e4 3d 71 ce 10 3f 8d c8 28 bf 4f da 9e be
       0.111737885 0.56565005 -0.65931016 -0.3102593
0000d0 7c b9 88 be d4 4d 04 3f 2e ab d5 3e 2e 8c 32 bf
       -0.26704013 0.51681256 0.41732162 -0.6974515
0000e0 a8 93 cc be 22 ad 0c bf 11 c3 31 bf cc 1c 28 bf
       -0.39956403 -0.5495168 -0.6943827 -0.6566894
0000f0 8c 6d ac 3e 41 24 7e 3e d4 0a 60 bd 30 ce fb bc
       0.33677328 0.24818517 -0.054697827 -0.030737966

feature_extract.mlps.0.linears.1.weight f4 [64, 64]
000000 ad 3a 8b bd b0 d8 81 3d f6 e8 d4 bd f3 c0 bf bd
       -0.06798301 0.06340158 -0.10395996 -0.09362974
000010 df 57 d7 bd f3 c2 5d bd d0 a6 c6 bd 85 c1 aa 3d
       -0.10514807 -0.054140996 -0.09699786 0.08337692
000020 5c 9a f7 bd 79 d1 65 3c d8 5f d1 3c 3d be 2e 3b
       -0.120899886 0.014026993 0.025558397 0.0026663684
000030 18 4c 69 3d 46 ca f0 3d 76 26 81 3d 00 56 ed 3c
       0.056957334 0.117573306 0.06306164 0.028971672
000040 a3 70 48 bd 3e 74 3c bc bc 19 f4 3d 4f 76 33 3d
       -0.048935544 -0.011502324 0.11918971 0.043814
000050 36 fd 18 bd 5f 93 65 bc a0 a7 df bd e7 87 c0 bd
       -0.037350856 -0.014012187 -0.10920644 -0.09400921
000060 f4 05 95 3d c1 f2 92 3c 5e 07 b9 3d fc 13 9f 3d
       0.07276526 0.01793802 0.09034608 0.077674836
000070 ee 9e 89 bc 8d ca de 3d 27 e5 1b 3d 82 86 b5 3d
       -0.016799416 0.10878477 0.038060334 0.08863546
000080 32 f9 ab 3d 9d cc e8 3d ce 72 ad bd b3 42 7b bc
       0.083971396 0.11367152 -0.08469163 -0.015335727
000090 35 7a 81 3d a6 78 d8 bd cb 6c c9 3c f8 ee e1 bd
       0.06322137 -0.10569887 0.02458801 -0.11031908
0000a0 40 10 76 bd 7c 3a 4d bd 6a 85 84 bd d9 af 1a 3d
       -0.06007409 -0.050104603 -0.06470759 0.037765358
0000b0 75 29 c7 3d 2e 42 e4 bd ef f4 b7 3d 56 46 27 bd
       0.09724704 -0.11145435 0.08982264 -0.040838562
0000c0 d3 ad 4f bc 53 dc 9b bc 68 7c ec bc c4 7f b9 bb
       -0.01267572 -0.019025957 -0.028867915 -0.005660983
0000d0 4a 0f 11 bd 82 bc aa bd 2b 8a a6 3a 2b 49 5e 3d
       -0.03541497 -0.08336736 0.0012705972 0.054268997
0000e0 17 af cf 3c 69 dd 83 3d c4 73 09 bd d3 b1 0a 3c
       0.025352044 0.06438715 -0.03355767 0.008465248
0000f0 8a 6f a4 3d 9a a9 e9 3d 59 28 ef bd fe 8f c3 3d
       0.08029087 0.11409302 -0.116776176 0.09548949
000100 63 a7 c1 3d 55 c2 aa bd 4b 76 34 bd df 6d 4e 3d
       0.094557546 -0.08337847 -0.044058125 0.05039775
000110 eb e7 9b 3d bd 45 f0 bd d8 67 19 3c 47 a5 04 bc
       0.07612594 -0.117320515 0.009363137 -0.008096046
000120 22 65 92 bb 3b bc d0 3d c8 f0 15 3c 25 1c 5a bd
       -0.0044676224 0.10192152 0.009151645 -0.053249497
000130 82 17 be 3d 75 6f f8 bc 60 19 ac 3d 47 44 d9 3d
       0.092818275 -0.030326584 0.084032774 0.10608726
000140 3c fb 3c 3d 9d 88 9f bd b9 56 5b bd 6d 1c c7 bd
       0.046138033 -0.07789729 -0.053549502 -0.09722219
000150 45 fa 8b bd 67 67 eb bd 8c ea d7 3b 45 30 48 bd
       -0.068348445 -0.11494332 0.0065892395 -0.04887416
000160 3d 45 e3 3d a2 05 e3 3c 51 e1 5d bd 59 bb fb bd
       0.110971905 0.027712647 -0.054169957 -0.12291593
000170 41 c2 77 3d 35 41 df bd 77 c3 2e bd 20 00 41 3d
       0.06048799 -0.10901109 -0.04266688 0.04711926
000180 bd e6 63 3d be 5f 0c bd 81 22 a5 3d f5 7c 7f bd
       0.05563997 -0.034270994 0.08063222 -0.062375028
000190 62 4b 9e bd 87 de 9e 3d 66 bc 1a 3c 1a 36 3f 3d
       -0.07729222 0.077572875 0.009444332 0.046682455
0001a0 48 e4 6a 3c 76 23 29 3d 1d 5f 9e bd ef 32 13 3d
       0.014336653 0.041293584 -0.07732985 0.035937246
0001b0 9a f8 8f bc bd 27 af bd 69 0c f1 3d 03 7a 97 3d
       -0.017574597 -0.08552501 0.11769945 0.07396319
0001c0 38 87 99 39 b1 e9 f6 3d 63 e5 f4 bd c4 9e b4 3d
       0.0002928318 0.12056292 -0.119578145 0.08819345
0001d0 76 46 75 bb 18 42 9d bd 19 51 fd 3d 1d 6e e8 3d
       -0.0037426031 -0.07678622 0.12368984 0.113491274
0001e0 12 8a 50 bd 57 ce 82 bd 1a a6 43 bd f4 98 33 bd
       -0.050912924 -0.063870125 -0.04776583 -0.04384704
0001f0 1e 26 10 3d 12 30 46 3d 7a f5 b8 3c 83 ea f6 bd
       0.0351926 0.048385687 0.02257799 -0.12056448
000200 76 b4 9a bd 18 4b 34 bd e5 ac 49 bc de 0e 0a bc
       -0.075539514 -0.044016927 -0.012309288 -0.008426396
000210 44 0e 84 ba a6 bb 6f bc e6 a0 af bd 72 6e 3a 3d
       -0.0010075052 -0.014632141 -0.08575611 0.045515485
000220 fb b2 c7 bd 14 c5 b9 bd 54 50 66 3c 29 32 fb 3d
       -0.09750935 -0.09070793 0.014057238 0.12265427
000230 69 25 56 bd 15 68 d4 bd 4a 7f 16 bb db 43 47 3d
       -0.05228177 -0.103714146 -0.0022964054 0.048648696
000240 b3 77 1d 3d ee 8b 44 3a ae de 95 bd 5a f9 6f 3b
       0.038444232 0.0007497658 -0.073178634 0.003661713
000250 d0 5f 0b 3c 25 c3 df bd e3 d6 40 3d 45 51 06 3d
       0.00850673 -0.10925893 0.047079932 0.03279235
000260 c2 93 50 3d 52 84 b9 3d 99 b5 67 bd 93 1e 5f 3d
       0.050922163 0.09058441 -0.05656967 0.054472517
000270 57 52 cf 3d 4f 41 ed bd d4 a5 d6 bd 3a 0f 32 3c
       0.10123127 -0.11584722 -0.10480848 0.010867888
000280 a7 0e 3e bd 6c 5a a0 3d 72 cd fc 3d e0 ad c3 bb
       -0.046400692 0.078297466 0.12343873 -0.0059716552
000290 df 12 3d 3c c6 65 9f bd 28 15 eb 3d 20 2d 00 bd
       0.011540144 -0.077830836 0.114786446 -0.031293035
0002a0 eb a9 a5 bd 4a 2e f5 bd 69 66 9c bd 79 68 22 bc
       -0.0808905 -0.119717196 -0.07636721 -0.009912604
0002b0 96 17 83 bd e2 02 0e bb 10 d9 f6 3b ff 86 f4 ba
       -0.06400983 -0.0021669199 0.0075332 -0.0018655955
0002c0 97 4c ce 3b 3c 4e 2f bc 0e 27 82 3d ad 6a e9 bd
       0.0062957513 -0.010699805 0.06355105 -0.113973
0002d0 66 ac ae bd de 4c 88 bc 12 3a 8b bd dc c8 b5 3d
       -0.08528976 -0.016638216 -0.067981854 0.088762015
0002e0 c4 c5 b5 3d c5 43 e9 3c 39 91 19 bd be 51 e2 bb
       0.088756114 0.028474698 -0.03749201 -0.006906717
0002f0 82 69 bb 3d 1e 5c 08 3c e9 ce d1 3d 23 6f e0 3d
       0.091509834 0.008322744 0.10244543 0.10958698
000300 4b 6d bf 3c 38 92 be 3d c2 b5 79 bb 23 72 57 bc
       0.023367545 0.09305233 -0.003810272 -0.013149771
000310 5e 26 0b bc f9 ff d1 bd 97 47 db 3d 5c 6e ff 3d
       -0.008493034 -0.10253901 0.10707014 0.12472221
000320 87 48 7a bc 4a b7 ac bd 01 2f 12 bd 3a 05 77 bb
       -0.015276081 -0.08433397 -0.035689358 -0.0037692324
000330 a8 8a cb bd f6 27 5c 3d 59 2c 9d bd 5a b7 90 3d
       -0.09938556 0.053749047 -0.07674474 0.070662215
000340 68 87 d8 3c 61 b7 b1 3d 6e 99 84 3d 95 96 cd 3d
       0.026431754 0.08677555 0.06474577 0.10038487
000350 fd a9 db 3d e6 f1 99 3d 14 9a 95 bd 70 d5 95 bd
       0.10725782 0.075168416 -0.07304779 -0.073161006
000360 56 26 53 3d 2a 8f e2 3d 0f 35 98 bd 49 5d 9f bd
       0.051550232 0.11062463 -0.07431995 -0.077814646
000370 07 e8 f0 bd 87 27 01 3d 7d c0 a0 bd ff 75 81 bd
       -0.11763006 0.031531837 -0.07849214 -0.06321334
000380 ed 1e 16 3d db 92 88 bd 0a 4e bf 3d 98 ce 38 bc
       0.036650587 -0.066686355 0.09341057 -0.011279725
000390 06 53 d7 3c 65 9b 1c 3d b4 5d 46 3c 82 14 99 3d
       0.026284706 0.038234133 0.0121073015 0.07474615
0003a0 8c 44 e4 bd da ec ab 3d 73 ee 5a 3d f6 e1 6a 3c
       -0.11145887 0.08394785 0.05345006 0.0143361
0003b0 27 cf 89 3d 5a 47 c9 3d 58 c4 6c bd ff 49 f2 3d
       0.06728964 0.09828062 -0.057804435 0.1183052
0003c0 00 13 a5 bc f8 3b dc bd 91 9c 63 3d 5e a5 90 bd
       -0.020150661 -0.10753626 0.055569235 -0.07062791
0003d0 4a 3a 3e 3c 07 f0 b0 bd 98 0d 98 3c 4c 94 99 3c
       0.011610577 -0.086395316 0.01856117 0.018747471
0003e0 a5 c2 e5 bd 66 48 5c bd 10 9d 40 bd 28 86 c3 bd
       -0.11218766 -0.053779982 -0.047024786 -0.09547073
0003f0 9b 2e 02 3d d5 4c 3f bd 30 b2 38 3c 40 fb 8c 3d
       0.031782728 -0.046704132 0.011272952 0.0688386

feature_extract.mlps.0.linears.1.bias f4 [64]
000000 47 fa 21 3d 71 f1 5a 3d 31 fc 41 3c ba e5 d1 3d
       0.039545324 0.053452913 0.011839912 0.10248895
000010 43 da b2 bd a4 cd f1 3c 95 65 e3 3c b3 24 b6 3c
       -0.08733036 0.029517002 0.027758399 0.022234296
000020 3e cf a4 3d c9 2e dd 3d 2c c7 af 3d 04 9a 9d bc
       0.08047341 0.10799939 0.08582911 -0.01923848
000030 95 a0 e0 3d 45 ee 49 3d c6 20 24 3d d4 f4 6a 3b
       0.109681286 0.049299497 0.040070318 0.0035851495
000040 c7 48 87 bd c3 79 94 3d 77 2b 08 3d 84 51 d2 3c
       -0.06605678 0.07249787 0.033244576 0.025673635
000050 0b 36 1d bd dc 17 e4 3d ce f2 b1 3d a0 6e ee 3d
       -0.038381618 0.11137363 0.086888894 0.11642194
000060 29 04 eb bc f7 ea 44 3d 46 5a 46 bd 37 34 bf 3d
       -0.028688507 0.048075642 -0.048425935 0.09336131
000070 66 6d db 3d 82 c3 0a 3d b7 51 d5 3d d0 18 bf bd
       0.107142255 0.033877857 0.104159765 -0.093309045
000080 62 1d f9 3c bb 64 87 3d 22 26 aa bd 52 a9 02 bb
       0.030409519 0.0661101 -0.083080545 -0.0019937349
000090 5b c6 81 3d ca 32 19 bd 54 d9 b0 bd 54 e0 8d 3d
       0.063366614 -0.03740195 -0.08635202 0.06927553
0000a0 05 31 be bd 39 4b f8 bb 43 7d e9 3d bf e6 08 bd
       -0.092866935 -0.0075773266 0.11400845 -0.03342318
0000b0 b6 6d e6 bb 72 d3 e6 3c a5 7e e0 bd 2b 21 de bd
       -0.0070321215 0.028176997 -0.109616555 -0.1084617
0000c0 9f bc 35 bd 97 a7 df 3c e0 72 fd 3d 06 fb 25 3d
       -0.044369336 0.027301593 0.12375426 0.040522598
0000d0 c6 57 fd bd 74 52 b9 3d ce 9a 4d bd 08 6d 4d 3c
       -0.12370257 0.0904893 -0.05019646 0.012538202
0000e0 2c fb b2 3d 17 69 8f 3d d2 4b 51 3d 9c 37 e6 3c
       0.087393135 0.07002466 0.0510977 0.028102688
0000f0 fc 41 d1 bd bc 36 eb bc 50 87 d8 3d 70 31 f9 bd
       -0.10217664 -0.028712623 0.10572684 -0.121676326

feature_extract.mlps.0.batch_norms.0.weight f4 [64]
000000 a5 2a 80 3f e3 06 80 3f 5f 0c 80 3f 95 24 80 3f
       1.0013014 1.0002102 1.0003775 1.0011164
000010 ed 79 7f 3f 4b 3d 80 3f 3a 15 80 3f 13 25 80 3f
       0.9979542 1.0018705 1.0006478 1.0011314
000020 62 b7 7f 3f de 33 80 3f d6 28 80 3f 46 44 80 3f
       0.99889195 1.0015829 1.0012462 1.0020835
000030 2e 9a 7f 3f 65 29 80 3f 99 20 80 3f 6d 8b 7f 3f
       0.99844635 1.0012633 1.0009948 0.9982212
000040 d0 30 80 3f f1 df 7f 3f d5 eb 7f 3f ef 29 80 3f
       1.0014896 0.9995108 0.99969226 1.0012797
000050 74 7d 7f 3f 78 0a 80 3f 8d ab 7f 3f 9b 33 80 3f
       0.998008 1.0003195 0.9987114 1.0015749
000060 1a a5 7f 3f 7c 78 7f 3f 25 2a 80 3f c7 dc 7f 3f
       0.998613 0.9979322 1.0012861 0.99946254
000070 eb 35 80 3f d2 33 80 3f f9 21 80 3f 24 24 80 3f
       1.0016454 1.0015814 1.0010368 1.0011029
000080 e9 84 7f 3f 08 1e 80 3f ca 30 80 3f 53 f1 7f 3f
       0.9981218 1.0009165 1.0014889 0.99977607
000090 06 9c 7f 3f 7a 27 80 3f 5d 3e 80 3f 19 a6 7f 3f
       0.9984745 1.0012047 1.0019032 0.9986282
0000a0 24 8e 7f 3f 61 b0 7f 3f ca 05 80 3f d5 2b 80 3f
       0.99826264 0.9987851 1.0001767 1.0013376
0000b0 95 9c 7f 3f 4e 94 7f 3f 4c a8 7f 3f b0 19 80 3f
       0.998483 0.9983567 0.99866176 1.0007839
0000c0 a9 e9 7f 3f e8 c7 7f 3f 8d 29 80 3f da a1 7f 3f
       0.9996591 0.9991441 1.001268 0.9985634
0000d0 be 22 80 3f fc 32 80 3f 89 d2 7f 3f b0 32 80 3f
       1.0010602 1.0015559 0.99930626 1.0015469
0000e0 87 2a 80 3f 56 f2 7f 3f 69 83 7f 3f 5b 85 7f 3f
       1.0012978 0.9997915 0.9980989 0.9981286
0000f0 ab 8a 7f 3f ea da 7f 3f 6f 9b 7f 3f f1 89 7f 3f
       0.99820966 0.9994341 0.9984655 0.99819857

feature_extract.mlps.0.batch_norms.0.bias f4 [64]
000000 20 c1 d8 3a 7c 8d de 3a 81 65 85 3a bd 79 22 39
       0.0016537048 0.0016979421 0.0010177345 0.00015494875
000010 78 5d f0 b9 81 96 0b 3b 86 29 96 3a b5 80 64 3a
       -0.00045846007 0.0021299424 0.0011456467 0.00087166886
000020 d9 3d 8b ba 33 2b a5 3a ad 46 c4 3a 59 9c 89 3a
       -0.001062329 0.0012601375 0.0014974676 0.0010498866
000030 cb 3b c2 ba 06 6e ad 3a 6f a3 cc 3a 23 c8 c0 3a
       -0.0014818845 0.0013231642 0.0015612672 0.0014708083
000040 41 bb cd 3a bd 78 73 ba 7b 81 b8 3a 0b 30 9f 3a
       0.0015696065 -0.0009287706 0.0014076674 0.0012145055
000050 0e 9d 02 bb 7c 96 8d 3a 73 0e a2 ba 94 06 76 3a
       -0.0019930038 0.0010802294 -0.0012363925 0.00093851355
000060 d2 87 ee b9 a8 aa ec ba 3e d1 8a ba 74 55 5d b9
       -0.00045496091 -0.0018056231 -0.0010590923 -0.00021108036
000070 b2 e4 70 3a e1 93 d4 3a f6 69 29 38 32 79 07 3b
       0.00091893517 0.0016218388 4.0391424e-05 0.0020671603
000080 fc f7 1f b9 1f 38 cf ba 83 81 b8 3a c3 0d f5 38
       -0.00015255803 -0.0015809572 0.0014076683 0.00011685074
000090 59 59 ca ba f4 de 96 3a 90 91 72 3a dd 1e 7d ba
       -0.0015438005 0.0011510537 0.0009253258 -0.0009655783
0000a0 28 d9 06 bb 09 ae a9 b8 ae f7 68 3a d8 c7 bd 3a
       -0.0020576213 -8.0909645e-05 0.0008887005 0.0014479114
0000b0 a8 26 b4 ba 34 e4 ce ba d6 4b 02 ba ad fd 9f 3a
       -0.0013744431 -0.0015784563 -0.0004970407 0.0012206339
0000c0 4b 8c a5 ba a4 6f 34 ba 7d bf e4 3a df 7d a9 ba
       -0.0012630312 -0.0006883091 0.0017452087 -0.0012931189
0000d0 0c d1 91 ba 39 72 98 3a bb ad 4b ba 8d 6d e6 3a
       -0.0011124923 0.0011630721 -0.00077697233 0.0017580256
0000e0 98 a9 79 3a ec 0d 7c ba 1e 53 00 bb 08 dd c0 ba
       0.00095238676 -0.00096151116 -0.0019580792 -0.001471431
0000f0 ab 38 9d ba 6a 26 9f 39 a6 8a e8 3a e5 a1 b0 ba
       -0.0011995038 0.00030355464 0.0017741516 -0.0013475983

feature_extract.mlps.0.batch_norms.0.running_mean f4 [64]
000000 6c 43 4e 3f 0b 28 58 3d 97 5e 8a bf d2 79 1a 3e
       0.8057163 0.052772563 -1.0810117 0.15085533
000010 aa 81 2e 3f 3c d7 1b c0 19 37 b7 bf 80 6c 28 c0
       0.681666 -2.4350119 -1.431369 -2.6316223
000020 8e e4 7f 3e 2a e7 f0 bf b0 50 9c 3f e3 1c 9c bf
       0.2498953 -1.8820546 1.2212124 -1.2196316
000030 bc 26 f0 3f e6 17 ab be 8a e7 bb 3f fd 70 8c 3e
       1.8761821 -0.3341667 1.4680035 0.27429953
000040 d8 be 45 be 9b 89 80 3d 12 e9 1b bf c6 43 df 3e
       -0.19311082 0.06276246 -0.6090251 0.43606395
000050 ba 12 e0 3e 47 de 2e bf c1 ac 2d bf b5 89 97 be
       0.43764287 -0.6830792 -0.67841727 -0.2959725
000060 df d0 82 3f 58 a1 be bf d3 53 0d be ba 50 63 bf
       1.0219992 -1.4892988 -0.13801508 -0.88795054
000070 47 29 ee bf 02 50 c7 bf b1 3c 9b be 8f 5b f6 3f
       -1.8606347 -1.5571291 -0.3031974 1.9246691
000080 d5 b9 2b bf fc f2 a7 3e 12 93 09 40 75 6b 82 bf
       -0.6708043 0.3280257 2.1496015 -1.0189043
000090 12 74 a1 bc 53 f7 dc bf 05 e3 30 bf 28 8f e8 3f
       -0.019708667 -1.7262977 -0.69096404 1.8168688
0000a0 1e e5 eb 3e 09 8a a5 3e 64 17 44 3f 2b c7 20 bf
       0.4607324 0.32331875 0.7659819 -0.62803906
0000b0 28 33 b6 3f 7e ea 45 40 26 b0 ac bf 1d 0c 79 be
       1.4234362 3.0924373 -1.3491256 -0.24321027
0000c0 ef ee 6f be d6 c6 2f be d9 90 84 3f 5f 2b 31 3e
       -0.2343099 -0.17165694 1.0356704 0.17301701
0000d0 99 88 ae be bb 9c aa 3e 74 ad 09 40 f6 c2 99 3d
       -0.3408859 0.333227 2.1512117 0.07507889
0000e0 11 5a 24 c0 ab ff ea 3c 22 3b e2 bf 6d 7a 3b 3f
       -2.5679972 0.028686365 -1.7674296 0.7323368
0000f0 ce 65 ce 3e f9 6d 1f 40 39 fd 29 bf f9 02 9d bf
       0.40312046 2.4910872 -0.6640201 -1.2266532

feature_extract.mlps.0.batch_norms.0.running_var f4 [64]
000000 9c 93 3f 3e 26 68 cd 3e 68 7c a3 3d d7 2d ec 3e
       0.18708652 0.4011852 0.07982713 0.46128723
000010 cd 85 d6 3e dd 8f 5b 3f e8 12 ad 3e 83 70 86 3e
       0.41898957 0.8576639 0.33803487 0.26257715
000020 81 f3 77 3e 1c 46 9a 3e fd 21 a5 3e 87 49 52 3e
       0.24213983 0.30131614 0.32252494 0.20535861
000030 3a 38 4b 3e 58 2c 8c 3e c2 31 26 3f 26 05 4a 3f
       0.19845667 0.27377582 0.64919674 0.78914106
000040 e7 cf 09 3f 57 04 9d 3e 01 6d fd 3e 53 e1 b2 3c
       0.5383286 0.30667374 0.49497226 0.021835959
000050 b0 e3 1f 3a 22 c3 49 3e 0e ee 97 3d ba 37 a7 3a
       0.0006099297 0.19703344 0.07418452 0.0012757697
000060 69 e1 63 3e 6e a8 29 3f 32 d2 6f 3e b6 47 cc 3e
       0.22253956 0.6627263 0.23420027 0.3989846
000070 de 7e 37 3f 00 7f e3 3e 05 32 0d 3e f9 67 aa 3e
       0.7167796 0.4443283 0.13788612 0.3328245
000080 93 01 0b 3d b5 5d 91 3e 01 1b 0d 3f 7a 99 66 3e
       0.03393705 0.28391805 0.5511933 0.22519484
000090 10 09 51 3c ae e3 bd 3d f8 73 bf 3e 66 a9 f4 3e
       0.012758508 0.09271942 0.37393165 0.4778549
0000a0 38 6a 32 3f 33 8d a9 3b 58 ff 50 3d 3d 8f 41 3d
       0.69693327 0.005174303 0.051024765 0.047255743
0000b0 24 47 81 3d e6 2a da 3e 5e 4e 98 3e b7 3f 65 3e
       0.06312397 0.42610854 0.2974729 0.22387587
0000c0 8f b3 08 3f 47 70 f7 3e 1a 1d 2d 3e 72 3c d1 3e
       0.53398985 0.48327848 0.16905633 0.4086643
0000d0 28 d7 d5 3c 04 91 d6 3e c5 dd 2d 3e 79 f4 b3 3e
       0.026103571 0.41907513 0.1697913 0.35147455
0000e0 08 20 05 3f d4 52 76 3e 5c 8b a1 3e a4 33 45 3f
       0.52002 0.24055034 0.31551635 0.7703192
0000f0 c4 09 c3 3d de 77 95 3e f6 b0 7a 3e 3c 42 9e 3e
       0.09523347 0.29193014 0.24481568 0.30909908

feature_extract.mlps.1.linears.0.weight f4 [64, 64]
000000 0f 08 e2 3d 4f e7 8b 3d 86 7e c7 3d ca c3 fb 3d
       0.11036693 0.06831228 0.09740929 0.12293203
000010 02 a7 05 bc 1c 92 41 bd ab 73 6c bd 16 a7 23 3c
       -0.008157494 -0.04725848 -0.057727497 0.009988567
000020 c8 ed 22 3d 89 31 04 bd d1 d6 9d 3d 7b a2 ff bd
       0.039777547 -0.032273803 0.077069886 -0.124821626
000030 13 24 d9 bd 0b 6b 2a bd d5 46 21 bc fe 20 84 bb
       -0.10602584 -0.04160599 -0.009843548 -0.0040322533
000040 a7 d0 08 bd bf 22 09 bd d5 82 a5 bd dd cd 0b 3d
       -0.03340211 -0.033480402 -0.08081595 0.034131873
000050 aa 0b 68 3d d5 d8 00 3d b0 8d f6 bc ed 8c 25 bd
       0.05665175 0.031456787 -0.030096859 -0.0404176
000060 23 fb 97 3d 8a 02 94 bb fc 4e b3 3b 8d 28 e6 ba
       0.074209474 -0.0045169042 0.005472062 -0.0017559692
000070 c3 46 5a bd d2 00 08 3d 00 61 f1 3d 2a 24 65 3d
       -0.05329014 0.033203907 0.117860794 0.05594269
000080 55 1b 2d bd e4 e5 e6 3c 1e d1 99 bd 66 9e c6 3d
       -0.042262394 0.028185792 -0.07510589 0.09698181
000090 22 40 17 bd 7c 3d a8 3d e8 8d e2 bd 84 46 df 3d
       -0.036926396 0.08214852 -0.11062223 0.10902122
0000a0 91 ce dc 3d 40 06 82 3d 0c 0a be 3d 0e 44 5e 3d
       0.10781587 0.06348848 0.0927926 0.05426412
0000b0 1b 5a a9 3d c5 f9 a7 3d 3f e7 39 bd a3 9e e7 bd
       0.082691394 0.08201937 -0.04538655 -0.113095544
0000c0 10 03 8b 3d 7c af ed bd a3 ef fa 3c 86 04 92 bd
       0.067876935 -0.116057366 0.030631846 -0.07129769
0000d0 99 c5 32 3d 45 23 02 bb ee 2a b7 3d 0f 52 7f 3d
       0.043645475 -0.0019857448 0.08943735 0.062334117
0000e0 f9 67 a2 3b 82 5e 8d bd d4 22 93 3d 9d 63 dd bc
       0.004956242 -0.069027916 0.07184377 -0.027025038
0000f0 5f e7 9c 3d 5e f5 8a 3d 36 99 23 bd 70 12 42 3d
       0.07661318 0.06785081 -0.039941035 0.047380865
000100 4c 76 8c bc 44 37 c8 bd d3 ba c7 bd a3 2c c1 3d
       -0.017146252 -0.09776166 -0.09752431 0.09432342
000110 8a e9 05 bd 06 0b 00 3e ea 61 c0 bd 31 d3 ee 3d
       -0.032693423 0.12504205 -0.093936756 0.11661375
000120 dc 27 2c bd 74 bc 87 3d 22 81 fa bd 72 dc b2 3d
       -0.0420302 0.066277415 -0.122316614 0.08733453
000130 2d 2b 24 3d 49 a7 8c bd 20 aa 69 3d 20 26 8e bd
       0.040080238 -0.068678446 0.05704701 -0.069408655
000140 16 a5 be 3d 4f 41 a3 bc 84 19 6e bc 81 5a 56 3d
       0.093088314 -0.019928603 -0.014532451 0.052332405
000150 d0 bd 29 bd 48 d9 89 3d 35 21 cf bc 21 92 58 bd
       -0.041440785 0.06730896 -0.025284389 -0.052873734
000160 f7 4c da bd 70 2d e7 3d 67 f5 2a bd 5c ac c8 3d
       -0.10659211 0.112879634 -0.04173794 0.097985
000170 d0 a7 ed 3c d4 54 90 bd d7 8b c9 3d 8d a0 82 bd
       0.029010683 -0.0704743 0.098411255 -0.06378279
000180 da 66 3b bc 84 6c 2c 3d e6 37 d4 bd b4 40 55 bc
       -0.011438096 0.042095676 -0.10362224 -0.013015915
000190 cf 45 49 bd 09 45 c1 bb 0d 67 32 bd cb d7 da bd
       -0.04913884 -0.005898122 -0.043555308 -0.106856905
0001a0 33 f5 83 bd e2 83 f0 3b 39 40 c5 bc da bb fb bc
       -0.064432524 0.0073399404 -0.024078475 -0.030729223
0001b0 e2 c5 0e 3c 26 05 57 3c a9 91 7d bd 40 e2 35 bd
       0.008714171 0.013123786 -0.06190649 -0.044405222
0001c0 a1 15 d3 3d 70 a0 85 3d 78 16 d3 3d 10 32 d3 3d
       0.1030686 0.06524742 0.1030702 0.10312283
0001d0 06 ac e1 3d 77 72 e9 3d 25 2f 69 bd ee 22 47 3d
       0.11019139 0.113987856 -0.056929726 0.048617296
0001e0 5f bc 50 bd 25 56 a9 bd 69 96 ae bd 1d 6f d9 bd
       -0.050960895 -0.08268384 -0.08524782 -0.10616896
0001f0 4c 50 54 3d d1 8d 5a 3d ac 04 53 3d b4 46 64 bd
       0.05183439 0.053357903 0.051518127 -0.05573149
000200 48 a0 5d bd d3 46 b8 3d 5c 08 9b bd c1 b5 a6 3d
       -0.054107934 0.08997884 -0.07569954 0.081401356
000210 3d ae 7e bd 50 6a c2 bd 92 32 3b bc 8c 26 ed 3d
       -0.062177885 -0.09492934 -0.011425631 0.11579618
000220 68 4d f3 3d 25 1a fb bd f7 70 5b 3c c6 83 f1 bd
       0.118799984 -0.12260846 0.013393632 -0.11792712
000230 d2 0b a8 bd ba 67 d3 3c ea 47 90 bc ed 7a f4 bc
       -0.082053795 0.025806297 -0.017612416 -0.029843772
000240 b4 15 87 bd 6a 41 09 bd 96 fb a6 3c 88 28 c4 bc
       -0.065959364 -0.03350965 0.020383637 -0.023945108
000250 9c 90 7f bd 17 ce 28 bd 26 ca f4 3d 54 77 df 3c
       -0.06239377 -0.041212168 0.11952619 0.02727858
000260 c7 db b2 bc 96 9f a4 bd 2f f7 2a bd 1a 6c dc bc
       -0.021833314 -0.08038251 -0.04173964 -0.026907016
000270 4c 59 fd 3d 96 2c c9 bd a5 d9 98 bd 6e 5d 89 bd
       0.12370548 -0.09822957 -0.074633874 -0.067072734
000280 cc db 0c bc 1a 14 9d 3d f5 90 1f bd 75 a4 f9 bc
       -0.0085973255 0.0766985 -0.0389566 -0.030473927
000290 d2 f5 f5 bd 6f 56 0e 3d c0 69 7b 3c 5c c3 33 bd
       -0.12009777 0.0347504 0.015345037 -0.04388748
0002a0 3d 1d ec 3d 6b 58 c6 3d 8c 1a 91 ba c7 2b 50 bd
       0.11529014 0.09684833 -0.0011070534 -0.050823
0002b0 2e 48 93 ba 65 8d 1c 3c 37 17 8d bc 2f e0 ee 3d
       -0.0011236721 0.009555195 -0.017222984 0.116638534
0002c0 04 91 ad 3d e9 26 7d bd 5e db 94 bd 40 0c 5f 3d
       0.08474925 -0.061804686 -0.072684035 0.054455042
0002d0 62 c3 66 3a 35 51 fb bc d3 2b bc bd d8 8f 59 bd
       0.0008802918 -0.030678371 -0.09188046 -0.053115696
0002e0 10 cc f9 3d 0e ee b8 3d a5 87 f3 bc fd c0 9c bc
       0.12197125 0.0902978 -0.029727766 -0.019134993
0002f0 3b 69 35 3d f8 22 73 3c 9f 3f 2c 3d bc de b8 3d
       0.04428981 0.01483988 0.04205286 0.09026858
000300 54 48 93 3d bb 48 74 bd 07 56 c1 3d 90 46 2c 3d
       0.0719153 -0.059639674 0.094402365 0.04205948
000310 ac 9a 82 bd c8 5b ec bc c2 f4 2f 3d 71 66 56 bd
       -0.063771576 -0.028852358 0.04295803 -0.05234379
000320 67 f8 a7 bd 29 e9 9d bd 76 40 a8 3d 6c 2b ac bd
       -0.08201676 -0.077104874 0.0821542 -0.084067196
000330 85 aa f5 bd 35 b5 a8 3d 16 75 b4 bd 9e d3 d6 3d
       -0.11995415 0.082376875 -0.08811395 0.104895815
000340 9d 1c fe bd 3f 5c 6d 3c 27 ad 34 3c d0 e3 ad 3c
       -0.12407801 0.014487325 0.011027611 0.021226794
000350 ad c2 2a 3d f4 ea f2 bd 6a 10 3c 3d d1 42 15 bc
       0.041689564 -0.1186122 0.04591409 -0.009110169
000360 3a be bd bc 30 d7 d5 3d 2d 3c 0a bd 64 da 26 bd
       -0.023161996 0.104414344 -0.033748794 -0.040735617
000370 4e 5a d2 bd 6d 67 f4 bd 10 1d c7 bd 2a a6 f2 3c
       -0.102711305 -0.119337894 -0.0972234 0.029620249
000380 70 80 0b 3d 2d ec e6 bc dd 46 94 bd a8 fb 95 b9
       0.034058034 -0.02818879 -0.072400786 -0.00028606993
000390 b5 84 0d bd 2d 71 b0 3c f4 b7 4c 3d 0f 48 35 bd
       -0.034550387 0.021538341 0.04998012 -0.044258174
0003a0 a8 11 02 bd 2b fe b9 bd 94 1c f7 3d bb d2 46 3d
       -0.03175512 -0.09081682 0.12065998 0.048540812
0003b0 80 a5 e2 bd 6d 1e 5e 3d 7a f5 82 3d 32 5c 6f 3d
       -0.11066723 0.054228235 0.06394477 0.058437534
0003c0 65 49 bc bc 35 68 bf bd 10 e8 ed 3c e8 ec ed bc
       -0.022984216 -0.09346048 0.02904132 -0.02904363
0003d0 24 df 1d bd a7 b0 1f bd 47 7a 97 bd 9c 75 28 3d
       -0.03854288 -0.03898683 -0.073963694 0.041127786
0003e0 58 72 7f 3d 0a 8c c0 3b dc cf ce 3d 6c 9c 74 bd
       0.062364906 0.005876069 0.1009824 -0.059719488
0003f0 dd 05 bf bd 0f 0e 00 be 3e 5f dc bd 2a de d9 bd
       -0.0932729 -0.12505363 -0.107603535 -0.106380776

feature_extract.mlps.1.linears.0.bias f4 [64]
000000 11 6b 92 bd 50 f3 42 3d 30 a8 54 bc e8 52 08 3d
       -0.071493275 0.047595322 -0.012979552 0.03328219
000010 dd 8f 4e bd d5 8e 96 bd 92 de 3f bd ed 48 cb 3d
       -0.050430167 -0.07351462 -0.04684312 0.09926019
000020 23 e0 b5 3d 81 34 d4 3c a4 0a 31 3c 35 ce 8d bc
       0.08880641 0.025903942 0.01080576 -0.017310241
000030 42 8f ba 3d 28 f4 40 bd 02 78 28 3d 92 3a 18 bd
       0.091093555 -0.047107846 0.041130073 -0.037165232
000040 b0 89 f3 3d 35 b1 2d 3c f0 5a cb 3d c1 06 eb 3d
       0.11891496 0.0106013315 0.09929454 0.114758976
000050 b7 81 73 bd f7 cb bd bd 21 62 88 39 2d b9 e0 3c
       -0.059449878 -0.09267419 0.00026013053 0.027432049
000060 0d 2e f7 3d 51 fe da 3d c3 74 a9 bd 35 38 a1 3d
       0.1206933 0.10693038 -0.08274224 0.07872049
000070 f8 63 aa 3c cb 59 91 bd d5 c6 b7 bd 83 1e b1 3d
       0.020799622 -0.07097205 -0.08973471 0.08648398
000080 c2 8e a2 3d df 8e e1 bd 4a e2 99 bd 2f ea 82 3d
       0.07937385 -0.110135786 -0.07513864 0.06392323
000090 8a 84 5e 3d b6 6a 4a 3d 9d 35 60 bd 44 15 f0 3b
       0.054325618 0.049418174 -0.05473863 0.007326754
0000a0 99 bb f3 3a bc 13 ac b9 10 93 0d 3d ef 4e 1f bc
       0.0018595337 -0.000328211 0.034564078 -0.009723409
0000b0 9b 45 9d 3d 87 d1 fc bd 75 bf cb 3d 04 e8 e1 3d
       0.07679292 -0.12344652 0.09948627 0.110305816
0000c0 78 af 7c 3c 33 57 8f 3d e9 0f 66 bd 57 2f e0 3d
       0.015422694 0.06999054 -0.056167517 0.10946529
0000d0 43 ab 29 3c 60 fa e8 bd b4 3f 73 3d 95 39 c7 3d
       0.010355773 -0.1137588 0.059386924 0.0972778
0000e0 92 ec 11 3d e1 93 80 3d 95 6b ad bb 04 8e 55 3d
       0.035626 0.06278206 -0.005292366 0.05213739
0000f0 dd 2c de 3d 3a 23 ef bd 5f 67 9a bd 99 f4 e8 bd
       0.10848401 -0.11676641 -0.07539248 -0.11374778

feature_extract.mlps.1.linears.1.weight f4 [64, 64]
000000 de c9 02 bd 3e e4 b9 3d a6 dd 71 3d 5a a4 7f bc
       -0.031930797 0.09076737 0.05904927 -0.015603149
000010 df 40 ca bd 9c c9 ba bd da b7 d5 3d dc 0a b7 3d
       -0.098756544 -0.09120485 0.104354575 0.08937618
000020 f4 9b 47 3d e3 f5 35 bb 1a ca e0 bd 42 57 b9 bd
       0.048732713 -0.0027764968 -0.10976048 -0.09049846
000030 65 8c ae bd ce 72 a8 3d 30 b9 5c bd 07 ef ad 3d
       -0.08522872 0.08225022 -0.053887546 0.084928565
000040 4d 52 e0 3d ee 95 ba 3d b3 fb a3 bc 94 8a fc b9
       0.10953198 0.09110628 -0.02001748 -0.00048168434
000050 1b 59 db 3d 05 57 e0 bd 24 8f 84 3d 20 e6 d2 3d
       0.10710355 -0.10954098 0.064726144 0.10297799
000060 2b e3 79 bc a8 6a 6b bd 66 3b dd bd 08 42 4d bd
       -0.015251915 -0.057474762 -0.10802345 -0.0501118
000070 63 0f 3e 3d 6e e3 51 bd 86 83 84 3d c3 97 17 bd
       0.046401393 -0.051242284 0.064703986 -0.037009966
000080 49 61 97 3d f8 21 c8 3c 10 6f d5 bd 38 ac b7 bd
       0.073916025 0.02443026 -0.10421574 -0.08968395
000090 93 02 a4 bd c8 96 d9 3d 1a 43 c7 bd 26 9b 60 3d
       -0.080083035 0.10624462 -0.097295955 0.05483546
0000a0 f8 28 d7 bd e5 50 2d 3d 92 8d d3 bc b3 27 89 bd
       -0.10505861 0.042313475 -0.025824342 -0.06697025
0000b0 12 77 c4 3d 43 8f e1 bd 0e 6c e8 3d 58 d6 fc 3c
       0.09593023 -0.11013653 0.11348735 0.030863926
0000c0 3d 4b 78 3b 06 e9 84 bd 76 6d 20 bc db df 95 3d
       0.0037886642 -0.06489758 -0.0097917225 0.07318088
0000d0 28 43 84 3d b4 4d f2 3d 85 7c cb bc e2 51 2e 3c
       0.064581215 0.11831227 -0.024839649 0.01063964
0000e0 dc 80 3f bd c6 97 d6 bd 00 62 35 3d 92 bc d3 bd
       -0.04675375 -0.10478167 0.044282913 -0.10338701
0000f0 6c 3a b5 3d 22 f0 3d bc 9a 89 0a bc fc d2 7b 3d
       0.08849034 -0.011592897 -0.008455658 0.061480507
000100 de c7 9f 3b aa d5 9d 3d a4 d9 c1 3d e0 9c a8 bd
       0.004876121 0.07706769 0.0946534 -0.082330465
000110 4e 72 ef bd cf cd ec bd 05 f4 e3 3d d1 5e f4 3d
       -0.11691724 -0.115626924 0.111305274 0.11932147
000120 34 67 a7 bb 1b 56 0b 3d e9 7e 69 3d 3d f6 00 be
       -0.0051087383 0.034017663 0.057005797 -0.12593932
000130 e6 8d 3f 3d 70 19 0a bd 7b 31 cf bd ef fb 43 3b
       0.046766184 -0.033715665 -0.101168595 0.0029904803
000140 5b 82 9b 3d 89 94 d4 bd fd 8f a8 3c 8f c9 b6 bd
       0.07593223 -0.10379893 0.020576471 -0.08925163
000150 f0 13 7d bd 23 ee ea bc 7e 86 98 3d 37 ca e2 bd
       -0.061786592 -0.028678006 0.07447527 -0.11073726
000160 4b 04 34 bd 17 56 61 3d e6 46 b4 3c 69 20 f1 3c
       -0.043949407 0.055013742 0.022006463 0.0294344
000170 82 1a c6 3d eb 62 03 bd db 18 4a 3d 5a ef 8f bd
       0.09673025 -0.032076757 0.04934011 -0.070280746
000180 d7 0b 5d bc 67 af 75 3a 4d d0 95 bc cd 5d de bd
       -0.013491592 0.0009372145 -0.018287802 -0.10857735
000190 66 61 77 3d a2 ae 73 3d d1 4f 50 3d 15 39 77 3d
       0.06039562 0.059492715 0.05085737 0.060357172
0001a0 a5 e4 24 bd 12 b3 05 3c d3 07 6e bd fa a8 8c 3d
       -0.040257115 0.0081603695 -0.05811293 0.06868167
0001b0 f6 4e b8 bc bb ad d2 3d a3 f6 9d bd df a0 f5 3d
       -0.022498589 0.10287043 -0.07713058 0.11993574
0001c0 6e 50 e6 3d a9 df 67 bd 28 30 84 3d ba 18 a2 3d
       0.112458095 -0.056609783 0.064544976 0.079148725
0001d0 0c 22 f8 bd 2d 98 bc 3d 15 4e 2a 3d 61 ef e6 bd
       -0.12115869 0.09208713 0.04157837 -0.11276127
0001e0 85 c0 3d bd f7 4a db bd 29 4c 60 bd 0f 43 bd bd
       -0.04632618 -0.10707658 -0.054760132 -0.09241306
0001f0 ed fc b2 bd 20 42 5b bd 18 c9 17 bd c5 2e 1f bd
       -0.08739648 -0.05352986 -0.037057012 -0.038862962
000200 fd 7f de bb 81 c0 a6 3d b2 4c 87 3d a7 0f 1b bd
       -0.0067901597 0.08142186 0.06606425 -0.037856724
000210 62 53 93 bd 0d 3d f4 3d ba e9 f9 3d 23 7e d7 bc
       -0.071936384 0.11925707 0.12202783 -0.026305264
000220 42 b4 b1 3c 72 6e 9e 3d 63 3f 4b 3d b9 81 27 3d
       0.021692399 0.077359095 0.049620997 0.040895198
000230 5e fe df 3d ae 06 c5 3c 60 d2 c6 bc 7d 71 cf bd
       0.109371886 0.024051037 -0.024270236 -0.10129068
000240 ee 31 93 3d 35 82 12 bd fd 5c 99 bd a1 a4 71 3d
       0.07187258 -0.035768706 -0.07488439 0.058994893
000250 74 19 d8 bd d5 0b bf 3d b9 43 e0 3a 4d ef fb 3d
       -0.1055173 0.09328429 0.0017110027 0.123015024
000260 5e c2 7f bd 31 40 d8 3d 75 b3 08 bc 78 f3 f2 bd
       -0.062441222 0.105591185 -0.008343567 -0.11862844
000270 aa 02 9d 3b bd f2 1f bc 38 59 62 3d 51 a6 1c 3c
       0.0047915773 -0.009762463 0.055260867 0.009561137
000280 ae 05 2a 3b 84 80 fd bd 32 86 a7 bd 8e 04 9d bd
       0.0025943327 -0.12378028 -0.081798926 -0.07666884
000290 3e b9 57 bd a2 4d 63 bd 89 88 10 bd b9 36 6f 3d
       -0.052666895 -0.05549396 -0.03528646 0.058401797
0002a0 1e 81 6b 3d fd 21 f8 ba 9d ce 01 be 68 d6 f1 3d
       0.057496183 -0.0018931028 -0.12676473 0.11808473
0002b0 21 e6 89 3d 33 13 ec bd d3 49 a8 3d 06 de cd 3d
       0.06733347 -0.115270995 0.08217206 0.10052113
0002c0 0b ed d7 3d ca e9 ae 3b 45 43 d9 bd 75 0b 62 bc
       0.10543259 0.0053379284 -0.10608534 -0.013796677
0002d0 64 01 be bd 94 10 c5 3d 27 95 9f 3d 76 04 9c 3c
       -0.09277609 0.09622303 0.077921204 0.019045096
0002e0 ff 4f 72 3c 87 d3 50 bd b6 a4 44 bd 68 79 65 3d
       0.01478958 -0.05098298 -0.048008643 0.056023985
0002f0 71 34 b8 3d 86 01 0d 3d f3 ce dd bb 0e 06 53 3c
       0.089943774 0.03442528 -0.006769055 0.0128798615
000300 e4 bc 22 bc a9 6e 25 bc 37 5b 6d bc 4c 5c b1 3c
       -0.00993273 -0.010097184 -0.014487079 0.021650456
000310 a3 c4 af 3c f3 28 db 3d f5 61 b0 bd 4b 40 4e bd
       0.021456068 0.1070117 -0.08612434 -0.050354283
000320 10 c2 e0 3c 4e 99 e8 3d ee d7 dd 3d a1 47 84 3d
       0.027436286 0.113573655 0.10832201 0.06458975
000330 e9 31 24 bb 26 b4 a4 3d 07 8b b0 bd 77 dd 86 3c
       -0.0025054163 0.08042173 -0.08620267 0.016463025
000340 40 a3 41 bd 82 bd 96 3d 3d 2b 79 bd d9 9b e3 3d
       -0.047274828 0.073603645 -0.06083225 0.1111371
000350 5a 62 69 3c 00 bd f9 bd cd e3 d2 3d 76 4b 70 bb
       0.01424464 -0.12194252 0.10297356 -0.0036666072
000360 19 3a 02 be 43 f9 f3 3d c4 ac 7a bd d4 48 eb ba
       -0.12717475 0.11912777 -0.06119992 -0.0017950782
000370 39 7f f5 3d f2 76 36 bd b7 df d0 bd f7 cf f2 3d
       0.119871564 -0.04454703 -0.1019892 0.118560724
000380 23 ba cb bd 4e 93 fa 3d 82 27 f2 3d 52 05 9c 3d
       -0.09947612 0.122351274 0.11823942 0.07618202
000390 3d 93 8b 3d ff be d9 3c 30 09 fd bd 4c 90 cd bd
       0.06815193 0.026580332 -0.12355268 -0.10037288
0003a0 f8 a6 a9 3d c8 d4 e0 3d e5 75 8c 3d e7 50 da bd
       0.082838 0.10978085 0.06858424 -0.10659962
0003b0 3e b6 85 3d 22 58 53 bb b7 1c 98 bc ba aa df bd
       0.065289006 -0.0032248576 -0.01856838 -0.109212354
0003c0 fc d7 ba bd e6 0e fd bd 6e ad ad 3c ac 43 fa 3d
       -0.09123227 -0.12356357 0.021200862 0.12219939
0003d0 c8 50 8d bd 44 00 54 bd b3 77 c5 bd ef a6 e6 bd
       -0.069001734 -0.051758066 -0.096419714 -0.11262309
0003e0 23 8e cd 3d 43 52 95 3d e1 a1 9d bb 79 7d fe 3c
       0.10036876 0.07291081 -0.0048105572 0.03106569
0003f0 f5 d8 b4 3d 3a 00 43 bc 3e bb ad bd 92 23 e4 3c
       0.08830444 -0.0119019095 -0.08482979 0.027848992

feature_extract.mlps.1.linears.1.bias f4 [64]
000000 81 d7 9a 3d 4d 89 0b bd fb 3b bc bd 03 90 28 3d
       0.07560635 -0.034066487 -0.09191128 0.041152965
000010 85 d9 da 3c 80 1a 21 3d a6 3a b0 bc 70 6d 8b bd
       0.02671505 0.039331913 -0.02151234 -0.06807983
000020 d5 2a df 3c 13 bf 9f 3d 41 c2 ff 3d fa de b6 bd
       0.027242104 0.078001164 0.12488223 -0.08929248
000030 7d 56 07 bd 75 4a c5 3d 09 a4 a7 bd 67 6b d1 3d
       -0.033041466 0.09633342 -0.08185584 0.102255635
000040 2a 7c 10 3d 9f 55 93 3d de 88 28 bd 96 a2 d3 3d
       0.035274662 0.07194065 -0.04114615 0.10333745
000050 97 93 f6 bd e7 08 aa 3d 56 0d 0f 3c 72 e7 11 3d
       -0.12039869 0.08302479 0.008731207 0.035621114
000060 0b 3d 87 3d bc 68 f8 bd d8 00 26 3b 18 bb 24 3b
       0.0660344 -0.121293515 0.0025330093 0.002513593
000070 9c 1d 15 3d 7b 99 8b bc 11 e7 9e 3c 75 a6 bd bb
       0.03640519 -0.017040959 0.01939729 -0.0057876655
000080 52 ba e3 bd 89 4b 77 bd de ad b4 3d f7 98 ce bd
       -0.11119522 -0.06037477 0.08822225 -0.100877695
000090 12 78 36 bd 38 dc c5 bd a3 c2 9e bb c1 c9 55 3d
       -0.0445481 -0.09661144 -0.00484498 0.05219436
0000a0 3c 17 5f bc 01 07 83 3d 39 31 ac bd c6 2d ab bd
       -0.013616379 0.0639782 -0.08407826 -0.0835834
0000b0 28 64 da bd 58 1b 67 3d 9d b0 a2 3c d8 75 ac bd
       -0.106636345 0.05642256 0.019859606 -0.084209144
0000c0 9c 28 f1 bd ad bd 24 bd af be 7a bb e1 5f ac 3d
       -0.11775324 -0.04021995 -0.003826063 0.08416725
0000d0 4f cb a5 bd ce 7a a8 3d a3 9d 44 3d 1f df e5 bd
       -0.08095419 0.08226548 0.048001897 -0.112241976
0000e0 78 a8 43 3d db 11 a5 3d 4b 1f 93 bd 3b a1 b3 3d
       0.047768086 0.08060046 -0.07183703 0.08770987
0000f0 06 b2 e8 3d 77 de ba bd 5f 3a b8 3d 4a 36 a0 3d
       0.1136208 -0.09124463 0.089955084 0.07822855

feature_extract.mlps.1.batch_norms.0.weight f4 [64]
000000 4a da 7f 3f ed 99 7f 3f 43 d7 7f 3f c9 94 7f 3f
       0.9994246 0.9984425 0.9993784 0.99836403
000010 c8 37 80 3f c2 fe 7f 3f f0 84 7f 3f e4 8b 7f 3f
       1.0017023 0.99998105 0.9981222 0.9982283
000020 34 9e 7f 3f 1d 3e 80 3f 63 3c 80 3f c4 42 80 3f
       0.99850774 1.0018955 1.0018429 1.0020375
000030 0f 86 7f 3f 60 8b 7f 3f 61 a5 7f 3f 7d 86 7f 3f
       0.9981393 0.99822044 0.99861723 0.9981459
000040 2b 35 80 3f 09 8c 7f 3f 71 3a 80 3f d7 e8 7f 3f
       1.0016226 0.9982305 1.0017835 0.9996466
000050 28 29 80 3f b4 8f 7f 3f 7a 80 7f 3f 74 35 80 3f
       1.001256 0.9982865 0.99805415 1.0016313
000060 27 42 80 3f 88 8e 7f 3f 50 42 80 3f ff b3 7f 3f
       1.0020188 0.9982686 1.0020237 0.9988403
000070 c6 d0 7f 3f 4c 3b 80 3f 13 77 7f 3f fd ad 7f 3f
       0.9992794 1.0018096 0.9979107 0.9987486
000080 d9 2f 80 3f 6c 81 7f 3f 3c b5 7f 3f b7 43 80 3f
       1.0014602 0.9980686 0.99885917 1.0020665
000090 1b 6a 7f 3f 4f 2a 80 3f 58 8d 7f 3f f0 b7 7f 3f
       0.9977128 1.0012912 0.9982505 0.9989004
0000a0 1f 4d 80 3f a5 84 7f 3f 7b 72 7f 3f fd 77 7f 3f
       1.0023535 0.99811774 0.9978406 0.9979246
0000b0 02 7c 7f 3f 7c 3e 80 3f b9 3e 80 3f dd 3f 80 3f
       0.99798596 1.0019069 1.0019141 1.001949
0000c0 82 21 80 3f 8f 9a 7f 3f cb 45 80 3f 9e 43 80 3f
       1.0010226 0.9984521 1.0021299 1.0020635
0000d0 d8 3d 80 3f 3d 32 80 3f 59 34 80 3f cd 92 7f 3f
       1.0018873 1.0015332 1.0015975 0.99833375
0000e0 5f 6f 7f 3f 28 86 7f 3f 61 29 80 3f ae 9c 7f 3f
       0.99779314 0.9981408 1.0012628 0.9984845
0000f0 76 8e 7f 3f 8a 46 80 3f 3e 50 80 3f 86 33 80 3f
       0.99826753 1.0021527 1.0024488 1.0015724

feature_extract.mlps.1.batch_norms.0.bias f4 [64]
000000 40 e5 87 ba fa 49 da ba 4e e8 03 bb 58 1c b2 ba
       -0.0010368004 -0.0016654127 -0.0020127478 -0.0013588769
000010 18 8a e8 3a c6 64 09 3b d7 dd c3 ba 18 96 e3 ba
       0.001774135 0.0020964607 -0.0014943433 -0.0017363457
000020 f8 41 db 3a 21 93 fa 3a 02 8a 01 3b 8f 2b 03 3b
       0.0016728034 0.0019117334 0.0019766097 0.0020014977
000030 30 12 eb ba b6 f4 3e ba 3c ac e4 ba e0 21 fe 3a
       -0.0017934497 -0.00072843896 -0.0017446349 0.0019388758
000040 de dd c4 3a b5 d5 e1 ba 2b ad 2c ba b6 85 91 3a
       0.0015019735 -0.0017229827 -0.00065870833 0.0011102471
000050 d3 7f b5 b8 b5 89 e0 ba d6 94 36 ba 38 bf d4 3a
       -8.654562e-05 -0.0017130884 -0.00069649273 0.0016231304
000060 06 5f db 3a fd 49 99 ba 8f a3 fe 3a 0c c4 da ba
       0.0016736693 -0.0011695024 0.0019427406 -0.0016690507
000070 80 ab 60 ba e7 83 cf 3a c7 b6 17 bb fc 35 04 3b
       -0.00085704774 0.0015832157 -0.0023149715 0.0020173779
000080 98 5e c9 3a be 7a f8 ba 7f 6a 0d 3a 8a dd f7 3a
       0.0015363274 -0.0018957478 0.00053945923 0.0018910628
000090 08 fe d0 ba 34 fb d5 3a 1d a9 e6 ba 41 fc cc ba
       -0.0015944848 0.0016325475 -0.0017598007 -0.0015639142
0000a0 11 4a 15 3b b4 63 f1 ba 14 f7 13 bb 94 58 02 bb
       0.0022779743 -0.0018416555 -0.002257769 -0.0019889222
0000b0 a3 00 eb ba 47 9b ec 3a 11 42 e4 3a 8d 9e 10 3b
       -0.0017929267 0.0018051647 0.0017414709 0.002206716
0000c0 ae 14 a5 3a f2 3a ec ba 3e ca 11 3b 3e 57 0e 3b
       0.0012594664 -0.0018022938 0.002224579 0.002171948
0000d0 f4 82 f4 3a b4 b5 c3 3a dc a5 8f 3a 76 b4 c8 ba
       0.001865475 0.0014931471 0.0010959464 -0.0015312571
0000e0 3d 32 11 bb 2e 78 e5 ba 9e 72 a2 3a 9e 14 da ba
       -0.0022155188 -0.001750713 0.0012393778 -0.0016638224
0000f0 e7 30 de ba ee 70 54 3a 7d 9a 95 3a 02 ad dc 3a
       -0.001695183 0.0008103986 0.0011413839 0.0016836228

feature_extract.mlps.1.batch_norms.0.running_mean f4 [64]
000000 89 c6 7f 3f 89 64 53 be 2a 68 a7 bd 31 c6 7e bf
       0.99912316 -0.2064382 -0.081741646 -0.99521166
000010 fe 78 81 be 92 c0 ee 3c 12 19 ff bd f2 eb 60 be
       -0.25287622 0.029144559 -0.12455954 -0.21965006
000020 ec 26 51 3f 06 bc 13 be 47 77 26 bf b1 da 12 bf
       0.81700015 -0.14427194 -0.6502575 -0.57364947
000030 89 d8 af 3e a3 7c 49 bd c4 ab 89 3f f6 23 94 3f
       0.3434489 -0.04919113 1.0755544 1.1573474
000040 a3 47 0e 3f 8d af bd be 2b d7 08 3f 3a 88 cd be
       0.5557806 -0.37047997 0.5345332 -0.40142995
000050 59 6c f5 3d 42 17 bf bd 21 41 28 bf 6f fd 94 bf
       0.11983556 -0.09330608 -0.6572438 -1.1639842
000060 8e ff 07 be 2e 5a 02 bf 2d 1e e1 be 33 0f 04 3f
       -0.1328108 -0.50918853 -0.43968335 0.5158569
000070 11 6c 45 bf c2 c0 bf bc b6 89 c7 be db 1a ca bd
       -0.7711802 -0.023407344 -0.38972253 -0.098684035
000080 bc bf 65 bf e0 87 b8 be c9 93 b8 be 11 82 fd 3e
       -0.8974569 -0.36041164 -0.3605025 0.49513295
000090 64 e0 51 bd 9f 2f 15 bf cd 65 70 3f fc 65 33 3d
       -0.051239386 -0.5827579 0.93905336 0.04379843
0000a0 88 11 17 3f 9f 8f 92 3f 15 b6 9e bb 41 cd 0b 3e
       0.59011126 1.145008 -0.004843483 0.13652517
0000b0 56 bb 24 bf e0 1d 9f 3d 14 c1 19 bf fd 7c bc 3e
       -0.6434835 0.0776937 -0.6006024 0.36814108
0000c0 42 1c 86 3e a2 2e 14 3f ac e5 54 bf c4 c4 3c be
       0.26193434 0.57883656 -0.8316295 -0.18434435
0000d0 c3 3b 32 3f bd 6d 3c be 66 99 72 3e 51 84 16 3f
       0.6962244 -0.18401237 0.2369133 0.5879565
0000e0 6d 2e 5f 3f 26 19 3d bb 6e 8e 54 3f fe 3a 9e bf
       0.87180215 -0.00288541 0.8302983 -1.2361753
0000f0 7b 85 2a 3f 57 9a 8e be 3a 10 d3 3e 36 09 4d 3e
       0.66609925 -0.27852127 0.41223317 0.20023045

feature_extract.mlps.1.batch_norms.0.running_var f4 [64]
000000 57 fb bb 3e f5 bc 2a 3f 69 dd 27 3f 91 f4 c8 3e
       0.36715195 0.66694576 0.6557222 0.3924909
000010 25 fc 38 3f e0 ae a2 3d 58 d3 ff 3d 40 8e c6 3e
       0.7225974 0.07943511 0.124914825 0.38780403
000020 57 02 e1 3e 74 5f 87 3e 3e 76 58 3f 0b dd c5 3e
       0.43947098 0.26440012 0.84555423 0.38645205
000030 bf 89 96 3e 49 87 9a 3f 94 d9 72 3f 9e 10 6f 3f
       0.29401967 1.2072536 0.9486325 0.9338473
000040 83 4e 02 3f a3 e0 35 3f 7d 22 f5 3e de 67 bb 3e
       0.5090105 0.71045893 0.47877875 0.36602682
000050 9f e4 76 3f be 8f 38 3f 8a 26 e1 3e d4 b2 a7 3f
       0.964426 0.72094333 0.43974715 1.3101449
000060 5d fa 76 3f b9 88 9b 3f a6 6f 79 3f 76 80 a1 3e
       0.96475774 1.21511 0.97435987 0.3154332
000070 b6 30 9f 3e 15 33 5c 3f 49 2a ef 3d 9b 15 b5 3e
       0.3109185 0.86015445 0.11677987 0.35368046
000080 ce 40 fa 3e c6 9f e9 3e 33 f7 96 3e 83 15 3a 3f
       0.48877567 0.4562971 0.29485473 0.72689074
000090 8b 5d b4 3e 40 f0 1b 3f 5c 54 30 3f be e7 08 3f
       0.35227618 0.6091347 0.6887872 0.5347861
0000a0 b6 0e d1 3e 6c 92 3c 3f cc 85 fd 3e cd 20 3c 3e
       0.40831536 0.7366092 0.4951614 0.18371888
0000b0 8c 56 e5 3e 11 41 30 3f 1c 74 3a 3e 4a 8e c8 3d
       0.44792593 0.68849283 0.18208355 0.097927645
0000c0 79 c1 f1 3f 26 64 44 3e 44 82 ad 3e fe d2 9f 3d
       1.8887168 0.19178829 0.33888447 0.078039154
0000d0 54 cd 09 3f e3 9d 83 3e 0e 7b 5d 3e 96 fe 07 3e
       0.5382893 0.25706396 0.21628973 0.1328071
0000e0 77 51 67 3f 11 ae 15 3e 61 f8 dc 3e 9b 6f 57 3f
       0.9035868 0.14617182 0.43158248 0.8415467
0000f0 46 64 fb 3e 10 3f 30 3f 01 f9 84 3f 84 61 20 3f
       0.4909994 0.68846226 1.038849 0.626488

feature_extract.batch_norms.0.weight f4 [64]
000000 c2 87 7f 3f 93 bc 7f 3f d9 86 7f 3f df b0 7f 3f
       0.99816525 0.99897116 0.99815136 0.9987926
000010 d1 34 80 3f 6a 90 7f 3f ef 7a 7f 3f e1 85 7f 3f
       1.0016118 0.99829733 0.99796957 0.9981366
000020 c3 bb 7f 3f ef c3 7f 3f ed 84 7f 3f 89 2c 80 3f
       0.99895877 0.99908346 0.99812204 1.0013591
000030 6b 31 80 3f 83 b8 7f 3f 0a 2c 80 3f a8 10 80 3f
       1.0015081 0.9989092 1.001344 1.0005083
000040 62 0b 80 3f 57 3a 80 3f 82 e8 7f 3f 72 35 80 3f
       1.0003474 1.0017804 0.99964154 1.001631
000050 6a 3a 80 3f 49 38 80 3f ea 95 7f 3f 58 40 80 3f
       1.0017827 1.0017177 0.99838126 1.0019636
000060 a8 93 7f 3f d4 8c 7f 3f d2 01 80 3f f4 82 7f 3f
       0.9983468 0.9982426 1.0000556 0.99809194
000070 fd 34 80 3f 45 9c 7f 3f 84 8d 7f 3f 25 7c 7f 3f
       1.0016171 0.99847823 0.9982531 0.99798805
000080 01 31 80 3f 44 47 80 3f 02 3d 80 3f 6b a0 7f 3f
       1.0014955 1.0021749 1.0018618 0.99854153
000090 8d fe 7f 3f ab 08 80 3f 0b 7a 7f 3f eb 3c 80 3f
       0.9999779 1.0002645 0.997956 1.0018591
0000a0 d7 27 80 3f 06 9b 7f 3f 0f 3d 80 3f 38 b1 7f 3f
       1.0012158 0.9984592 1.0018634 0.9987979
0000b0 63 db 7f 3f 8a 39 80 3f 57 bb 7f 3f a3 39 80 3f
       0.9994413 1.001756 0.9989523 1.0017589
0000c0 48 0d 80 3f 98 28 80 3f 3d 2c 80 3f f9 84 7f 3f
       1.0004053 1.0012388 1.00135 0.99812275
0000d0 eb 12 80 3f 71 e2 7f 3f 4b 22 80 3f 27 76 7f 3f
       1.0005773 0.999549 1.0010465 0.9978966
0000e0 1d 15 80 3f 25 28 80 3f ce a7 7f 3f 92 d7 7f 3f
       1.0006443 1.0012251 0.99865425 0.9993831
0000f0 43 2e 80 3f 2b b1 7f 3f b0 e7 7f 3f 44 40 80 3f
       1.0014118 0.9987971 0.999629 1.0019612

feature_extract.batch_norms.0.bias f4 [64]
000000 5d 9f e9 ba 4e f9 29 ba d5 d5 fd 3a fd 14 a3 ba
       -0.0017823983 -0.00064839877 0.0019366095 -0.0012442168
000010 8f 0b df 3a 75 3a eb ba c8 4f d4 ba 1b 0f 98 3a
       0.0017016995 -0.0017946499 -0.0016198093 0.0011601181
000020 36 2a 37 ba 88 c4 82 ba bc fe e0 ba ca 4e b5 3a
       -0.0006987186 -0.0009976784 -0.001716576 0.0013832685
000030 1f 58 e6 3a cb 53 8e 3a 02 58 c9 3a 5c 2b e4 3a
       0.001757387 0.0010858712 0.0015361311 0.0017407942
000040 ab ff 76 b9 2f 3a df 3a a5 f1 ab b9 c0 ec dc 3a
       -0.00023555632 0.001703089 -0.000327957 0.0016855225
000050 c1 10 f3 3a 7e ea e9 3a 4d 48 c3 ba db a7 eb 3a
       0.0018544422 0.0017846373 -0.0014898867 0.0017979102
000060 79 eb e5 ba 61 7d 07 bb cd 21 06 3b 7b e0 0f bb
       -0.001754149 -0.0020674097 0.0020466924 -0.002195387
000070 e3 9e d6 3a dd 0d a2 ba 7a 8a 9b 3a 95 0d d2 ba
       0.0016374256 -0.0012363751 0.0011866831 -0.0016025776
000080 b4 8c d8 3a 99 52 8d 3a 99 2c e3 3a c2 4f cc ba
       0.0016521425 0.0010782062 0.0017332017 -0.0015587735
000090 93 b9 a0 36 77 b0 e3 3a b9 58 f1 ba 54 7e ef b9
       4.7899753e-06 0.0017371316 -0.0018413282 -0.00045679754
0000a0 cd 89 aa 3a b1 0a d3 ba 7c d1 e4 3a b6 25 66 3a
       0.0013011039 -0.0016101209 0.0017457451 0.0008779423
0000b0 11 59 04 39 23 9d 80 39 c6 93 be ba 18 31 da 3a
       0.00012621681 0.00024531138 -0.001453989 0.0016646711
0000c0 3b 19 85 b9 0a f7 d0 3a 53 9a da 3a 97 f2 ef ba
       -0.00025386535 0.0015942764 0.0016678072 -0.001830655
0000d0 a0 fd a0 3a 23 e2 2c 3a 72 0a b7 3a 64 a6 08 bb
       0.0012282617 0.00065949763 0.0013964905 -0.002085113
0000e0 76 b1 df 3a e6 b6 e3 ba ac a4 d1 ba e4 54 a4 ba
       0.0017066437 -0.0017373234 -0.0015994511 -0.0012537506
0000f0 ef d1 bf 3a b9 e4 e4 b8 bf 57 50 39 39 75 03 3b
       0.0014634709 -0.0001091449 0.00019869114 0.0020058884
