save/FJSP_DRL/save_best_10_5_40.pt (torch, 851658 bytes, 82 tensors)

get_machines.0.attn_l f4 [1, 1, 8]
0	0xbf3802d2	-0.71879303
1	0xbf6e6169	-0.93117386
2	0x3e26be0d	0.16283436
3	0x3f1c2f44	0.6100962
4	0x3eb50f60	0.35363293
5	0xbe5e0e8c	-0.21685237
6	0xbe99b98a	-0.30024368
7	0xbed472c7	-0.41493818

get_machines.0.attn_r f4 [1, 1, 8]
0	0xbe932530	-0.2873931
1	0xbd083c6c	-0.033260748
2	0xbeac1a2f	-0.33613726
3	0xbf25e778	-0.6480632
4	0xbeaa35cf	-0.33244178
5	0xbf0ca2bf	-0.5493583
6	0xbf9794e6	-1.1842315
7	0xbec9f269	-0.39442757

get_machines.0.attn_e f4 [1, 1, 8]
0	0xbee1b287	-0.44081518
1	0xbdb2488b	-0.08705243
2	0x3edf8e14	0.43663085
3	0x3fa285be	1.2697065
4	0x3d4d0404	0.050052658
5	0x3ef1f94c	0.4726051
6	0xbec8518e	-0.3912472
7	0xbf72eb27	-0.94890064

get_machines.0.fc_src.weight f4 [8, 6]
0	0x3efb58be	0.49091142
1	0x3d391c72	0.045193143
2	0xbe74de57	-0.23912941
3	0xbe560967	-0.20902024
4	0x3f2499e8	0.6429734
5	0x3dff1dee	0.124568805
6	0x3f8bdc9c	1.09267
7	0xbd317e1f	-0.04333317
8	0x3f107814	0.56433225
9	0xbe0c3b54	-0.13694507
10	0x3d5410ce	0.05177384
11	0x3ee949ed	0.45564213
12	0xbda000bd	-0.07812641
13	0xbf02c3aa	-0.5107981
14	0x3f541a5d	0.8285273
15	0x3d31d502	0.04341603
16	0xbe18161b	-0.14852183
17	0x3f3a4cb5	0.72773296
18	0x3f718ce3	0.943556
19	0x3f1344b2	0.57526696
20	0x3ef178b2	0.47162396
21	0xbdb91e01	-0.09038926
22	0xbf07e237	-0.5307955
23	0xbeb2b937	-0.34906933
24	0xbf87b399	-1.0601684
25	0x3f36c105	0.71388274
26	0x3f3dbfa4	0.74120545
27	0x3e4387f3	0.1909483
28	0xbf4db048	-0.8034711
29	0x3fc0f1d6	1.5073802
30	0xbf041e83	-0.5160906
31	0x3d7fad10	0.062420905
32	0xbe8a137b	-0.26967987
33	0xbf02d789	-0.5111013
34	0xbe2a9926	-0.16659984
35	0xbf3e6dfe	-0.74386585
36	0xbeb9e376	-0.3630635
37	0xbe29abae	-0.16569397
38	0x3ee310cb	0.4434875
39	0xbe3e20d5	-0.18567212
40	0x3e7872d5	0.24262555
41	0x3f39efb4	0.7263138
42	0x3e1344ec	0.1438176
43	0xbf2e2928	-0.6803155
44	0xbf8af5e1	-1.0856286
45	0x3ec04e2a	0.37559634
46	0xbd416a98	-0.047220796
47	0xbed78b4f	-0.42098472

get_machines.0.fc_dst.weight f4 [8, 3]
0	0x3e23476b	0.15945213
1	0xbff1b0ee	-1.888212
2	0xbcb75766	-0.022380542
3	0x3f2f19eb	0.6839892
4	0xbee0f031	-0.43933252
5	0xbe1509b8	-0.14554489
6	0x3f2b5161	0.6692105
7	0x3f2065c3	0.62655276
8	0x3f107a93	0.56437033
9	0x3f166029	0.5874048
10	0x3ea071ad	0.31336728
11	0x3f0d7d6f	0.5526952
12	0xbf7b8f88	-0.98265886
13	0xbe50c7ea	-0.20388761
14	0xbe7944a5	-0.24342592
15	0x3e36c2be	0.17847726
16	0x3f9f0438	1.2423162
17	0xbe90e32d	-0.2829832
18	0x3e39bf99	0.18139495
19	0xbe5d0604	-0.21584326
20	0xbf830a27	-1.0237473
21	0x3f3b171e	0.7308215
22	0xbeac3941	-0.3363743
23	0x3fa424c9	1.2823726

get_machines.0.fc_edge.weight f4 [8, 1]
0	0xbe56ddbf	-0.20983027
1	0xbdb4aee2	-0.08822419
2	0xbf1caad9	-0.6119819
3	0x3f207f34	0.62694097
4	0x3faff485	1.3746496
5	0xbf1b54c6	-0.6067623
6	0xbed48b98	-0.41512752
7	0xbeb183fc	-0.3467101

get_machines.1.attn_l f4 [1, 1, 8]
0	0x3f2ec74b	0.68272847
1	0x3eb0c87b	0.34527954
2	0x3eb0e331	0.34548333
3	0xbf04fae5	-0.51945335
4	0xbe176f1c	-0.14788479
5	0x3e58f224	0.2118612
6	0xbea439e4	-0.32075417
7	0x3e1db90c	0.15402621

get_machines.1.attn_r f4 [1, 1, 8]
0	0xbf6992ce	-0.9123963
1	0x3ea43862	0.32074267
2	0xbe5e2182	-0.2169247
3	0xbde2e613	-0.110790394
4	0x3db53098	0.08847159
5	0xba4b9b3f	-0.0007766969
6	0x3e5ed207	0.21759807
7	0x3eab64ca	0.33475333

get_machines.1.attn_e f4 [1, 1, 8]
0	0x3f1ebd1a	0.62007296
1	0xbaa20fd3	-0.0012364335
2	0xbe09b372	-0.13447359
3	0xbe6f4431	-0.23365857
4	0x3f45f65e	0.7732905
5	0x3e75cd91	0.24004199
6	0x3f058cdf	0.5216808
7	0xbfb72c4f	-1.4310397

get_machines.1.fc_src.weight f4 [8, 8]
0	0x3eb354a4	0.35025513
1	0x3f4ccf11	0.8000346
2	0xbed76ad9	-0.42073706
3	0xbe82e5bb	-0.25565895
4	0xbebf391d	-0.3734826
5	0xbf456c58	-0.77118444
6	0xbea66351	-0.32497647
7	0xbe3761cd	-0.17908402
8	0xbe4b869f	-0.19875573
9	0x3dfb5cc6	0.122735545
10	0x3da6c5a4	0.08143166
11	0xbf01d09c	-0.5070894
12	0x3f27b09d	0.65503865
13	0xbee516dd	-0.44744006
14	0x3eb3d3ac	0.3512243
15	0xbe908b33	-0.282312
16	0x3f150e5e	0.5822505
17	0xbda2259b	-0.07917329
18	0xbf9e5b29	-1.237157
19	0xbe932da6	-0.28745764
20	0x3c37650a	0.011193523
21	0x3ed41e0b	0.4142917
22	0xbf19151d	-0.5979784
23	0xbf281c20	-0.65667915
24	0xbf41f281	-0.75760657
25	0x3db5a403	0.088691734
26	0x3ee9aebe	0.4564113
27	0xbec58766	-0.38579863
28	0x3dc48c19	0.09597034
29	0x3ee77ab1	0.45210794
30	0x3b3426f4	0.0027489038
31	0x3df1d306	0.11807828
32	0x3f92042a	1.1407521
33	0xbf1e33ab	-0.6179759
34	0x3eef34a3	0.46719846
35	0x3ea77d35	0.32712713
36	0xbe3cfeaa	-0.18456522
37	0xbe86b757	-0.26311752
38	0xbf0cb9d6	-0.54971063
39	0x3cfa7a76	0.030575972
40	0x3e766c80	0.24064827
41	0xbf9dab78	-1.2317953
42	0x3e76a070	0.2408464
43	0xbeddb9cf	-0.43305823
44	0xbf8c0fb1	-1.0942289
45	0xbf0ebbf6	-0.55755556
46	0x3c6805e1	0.014161558
47	0xbec48a65	-0.38386837
48	0x3ea585a4	0.32328522
49	0x3f0acc54	0.5421803
50	0x3e02d6f2	0.12777308
51	0x3e4168a7	0.18887578
52	0x3ec19448	0.37808442
53	0xbeee48d6	-0.46539944
54	0xbdab368a	-0.08360012
55	0x3d8bcbd5	0.06825987
56	0xbe4cd369	-0.20002522
57	0x3e0d032e	0.13770744
58	0x3ec8dd69	0.39231423
59	0xbee2d70b	-0.4430469
60	0x3cf57fb8	0.029968128
61	0x3ecfb5ce	0.40568393
62	0x3daabae3	0.08336427
63	0xbee31576	-0.4435231

get_machines.1.fc_dst.weight f4 [8, 8]
0	0xbec1ac0d	-0.37826577
1	0xbf36d91b	-0.71425027
2	0x3f78792a	0.9705988
3	0xbf0b9814	-0.5452893
4	0xbd8b3d90	-0.067988515
5	0xbef3b14a	-0.47596198
6	0xbe87a920	-0.2649622
7	0xbe8acc21	-0.27108863
8	0x3f454052	0.7705127
9	0xbd1594f4	-0.036519006
10	0xbf261336	-0.64873064
11	0x3f4dd929	0.80409485
12	0x3f8c9974	1.098433
13	0xbd4cf0fc	-0.050034508
14	0xbe583488	-0.21113789
15	0xbd0e4fec	-0.03474419
16	0x3e02b9cc	0.12766188
17	0xbec8e481	-0.39236835
18	0xbf2e2dd9	-0.6803871
19	0x3ed87b61	0.4228163
20	0xbe188320	-0.1489377
21	0xbecdff89	-0.4023402
22	0x3dd549fc	0.10414502
23	0xbde2aebc	-0.11068484
24	0xbe169057	-0.14703499
25	0xbcf07afc	-0.029355519
26	0xbe13e1f9	-0.1444167
27	0xbf0eb466	-0.55744016
28	0x3e794f76	0.24346718
29	0xbefe5345	-0.49672905
30	0xbf206216	-0.6264967
31	0xbf2b7979	-0.6698223
32	0x3f1bef47	0.60911983
33	0x3cdb8053	0.026794588
34	0xbe1e9251	-0.15485503
35	0xbdd182cf	-0.10230028
36	0xbef5aac8	-0.47981858
37	0x3da89237	0.08231013
38	0x3f27bf81	0.65526587
39	0xbf02c465	-0.51080924
40	0xbc89cc7d	-0.01682114
41	0xbebf1138	-0.37317824
42	0xbf53185e	-0.82459056
43	0xbf2fe2eb	-0.68705624
44	0x3f128cfc	0.57246375
45	0x3ee79a7b	0.45235047
46	0xbe04a31c	-0.12952846
47	0xbe525d68	-0.20543444
48	0x3f4f525e	0.8098506
49	0x3e525bea	0.20542875
50	0xbdc70b89	-0.09718997
51	0xbf43678a	-0.76329863
52	0xbd11eebf	-0.035628077
53	0xbe8ce20e	-0.27516216
54	0x3ee3dafa	0.44503003
55	0x3ebf8943	0.3740941
56	0xbe43d97e	-0.19125935
57	0xbb80dfcc	-0.0039329287
58	0xbeff842c	-0.49905527
59	0xbf3fc29b	-0.7490632
60	0xbdb91b93	-0.090384625
61	0x3f2ce706	0.67540014
62	0x3c9b886f	0.018985955
63	0xbf71ecf5	-0.9450219

get_machines.1.fc_edge.weight f4 [8, 1]
0	0xbeb91246	-0.36146754
1	0xbfa65b16	-1.2996547
2	0x3e1c6b68	0.15275347
3	0x3fe06fc1	1.7534105
4	0xbfcd970c	-1.6061721
5	0xbe95645b	-0.29178128
6	0xbf8be4f0	-1.0929241
7	0x3e3fb169	0.1872002

get_operations.0.gnn_layers.0.project.0.weight f4 [128, 8]
0	0xbea1522e	-0.3150801
1	0xbe1449e3	-0.1448131
2	0x3e0d8c85	0.13823135
3	0xbe3706b5	-0.17873652
4	0x3e9174a1	0.28409293
5	0x3d21ac2c	0.039470837
6	0x3ea3d8a7	0.3200123
7	0xbd9d7381	-0.07688046
8	0xbe8bd0c8	-0.27307725
9	0x3d7929bb	0.060830813
10	0x3e8ffc2c	0.2812208
11	0xbe6a54b2	-0.22883871
12	0xbe5280a1	-0.2055688
13	0xbe10788a	-0.14108482
14	0x3e9d8cee	0.30771583
15	0x3e9dff2f	0.30858752
16	0xbea85394	-0.32876265
17	0x3bf409ae	0.007447443
18	0x3e90919b	0.28236088
19	0xbdd0e4e3	-0.10199907
20	0xbe6a455e	-0.22878024
21	0x3e3ed25e	0.18634936
22	0x3eb8857f	0.3603935
23	0x3e475f93	0.19470052
24	0x3dc152fd	0.09439657
25	0xbe85167d	-0.2599372
26	0xbe918e67	-0.28428957
27	0xbea5a386	-0.3235132
28	0x3ea0a368	0.3137467
29	0xbe12287b	-0.14273255
30	0xbe150362	-0.14552072
31	0xbe30530f	-0.17219184
32	0x3dc875f1	0.097881205
33	0xbe7a98d4	-0.24472362
34	0x3e051d33	0.1299942
35	0x3e2b67b0	0.16738772
36	0x3e8b651e	0.27225584
37	0xbe9f23f6	-0.31082124
38	0xbe874d7c	-0.26426303
39	0xbc391305	-0.0112960385
40	0xbddab31e	-0.10678695
41	0xbd75dc11	-0.060024325
42	0xbeb969e9	-0.36213616
43	0x3e9f32c7	0.31093428
44	0xbe66c54b	-0.22536199
45	0xbe923c98	-0.28561854
46	0x3dcd7453	0.10031953
47	0xbe296af9	-0.16544713
48	0x3e8910e5	0.26770702
49	0xbe849696	-0.25896138
50	0x3e599ecb	0.21251981
51	0xbd12f75a	-0.035880424
52	0x3ea68d47	0.3252966
53	0x3e9d2e69	0.3069947
54	0x3e984cce	0.29746097
55	0xbea9930b	-0.33119997
56	0x3d3b3ded	0.045713354
57	0x3e90b56d	0.28263417
58	0x3e8cbde5	0.27488628
59	0x3dda1517	0.10648554
60	0xbea466c0	-0.32109642
61	0xbe17f813	-0.14840727
62	0xbe95fce4	-0.29294503
63	0x3cd81e95	0.02638177
64	0xbb95a9f0	-0.0045673773
65	0x3e038252	0.12842682
66	0x3ccb0cc5	0.024786362
67	0x3e5f2db5	0.2179478
68	0xbe59491c	-0.21219295
69	0x3e005c85	0.12535293
70	0x3e9aecb6	0.3025872
71	0x3e0e9730	0.13924861
72	0x3e6346c0	0.22194958
73	0x3dd1d575	0.10245792
74	0xbeae6038	-0.34057784
75	0xbe556ad0	-0.20841527
76	0xbead7493	-0.33878002
77	0x3e166779	0.14687909
78	0xbe3c7c22	-0.18406728
79	0xbd64499a	-0.055734254
80	0x3e98be8a	0.2983287
81	0x3e9115dc	0.2833699
82	0xbe994922	-0.29938608
83	0x3e034758	0.12820184
84	0x3e91a811	0.28448537
85	0xbe01fb97	-0.1269363
86	0xbd9c15aa	-0.076213196
87	0xbe9e0f0f	-0.30870864
88	0xbe7382b5	-0.2378033
89	0x3e7bbaf8	0.24583042
90	0x3d12b7ec	0.035819933
91	0x3e0fc5d7	0.14040314
92	0x3a824d54	0.0009941258
93	0x3e1f3970	0.15549254
94	0xbd4e966b	-0.05043642
95	0xbe465a91	-0.19370486
96	0x3e22d666	0.15902099
97	0xbea5a357	-0.3235118
98	0x3eae592f	0.34052417
99	0xbe7bcf87	-0.24590884
100	0xbeacfb0e	-0.3378529
101	0x3ea5f2b6	0.32411736
102	0xbe4931d2	-0.19647911
103	0xbe0263c9	-0.12733378
104	0xbe79de58	-0.24401224
105	0x3cefccd3	0.029272472
106	0x3eaf5c69	0.3425019
107	0x3ebe18ed	0.37128392
108	0xbd427b60	-0.04748094
109	0x3e0b9f39	0.13634957
110	0x3e084867	0.1330887
111	0x3e0b9ec7	0.13634787
112	0xbe4858dd	-0.19565149
113	0x3d5750a4	0.05256714
114	0xbdb419ae	-0.087939605
115	0xbe8c843e	-0.27444643
116	0x3e38ef87	0.18060122
117	0x3e15d586	0.14632234
118	0x3e8c4788	0.27398324
119	0x3e87c8da	0.26520425
120	0x3db00c80	0.08596134
121	0xbd04235a	-0.032260276
122	0xbeb26ede	-0.3485021
123	0xbeaa6aef	-0.3328471
124	0x3e965a9e	0.2936601
125	0xbe07d470	-0.13264632
126	0xbe149efc	-0.14513773
127	0xbde66bf4	-0.11251059
128	0x3eb2e4f7	0.3494031
129	0x3e017a09	0.12644209
130	0x3c232862	0.0099583585
131	0x3e919d70	0.28440428
132	0xbe847aa6	-0.25874823
133	0x3d7b8b72	0.061412282
134	0xbe75bd66	-0.23998031
135	0x3dbd9b93	0.09258189
136	0x3e9177f2	0.28411824
137	0xbeb8dfc9	-0.36108235
138	0xbe6631b5	-0.22479899
139	0xbe8995fa	-0.26872236
140	0x3ea9546e	0.33072227
141	0xbe936539	-0.28788164
142	0x3e31f627	0.17379056
143	0x3da05734	0.07829133
144	0x3e204922	0.15652898
145	0x3ddc4dcc	0.10757026
146	0xbe1570a6	-0.14593753
147	0xbe0617be	-0.13094994
148	0x3eb38483	0.35062036
149	0x3dafa55a	0.0857646
150	0x3d9b7003	0.07589724
151	0xbde0b218	-0.10971469
152	0xbe4bff01	-0.19921495
153	0xbea3943b	-0.31949028
154	0xbce50149	-0.027954714
155	0x3d955f8a	0.07293613
156	0x3df6887e	0.120377526
157	0xbdd8eae7	-0.10591679
158	0xbb7cd4dd	-0.0038579025
159	0xbca9eaf6	-0.02074192
160	0xbe91a4b9	-0.28445986
161	0x3d47537b	0.048663598
162	0xbd0ce0be	-0.03439402
163	0x3ea21e13	0.3166357
164	0xbeb44aab	-0.35213217
165	0xbe9a601e	-0.30151457
166	0xbe4bd86c	-0.19906777
167	0x3e2a94a0	0.16658258
168	0x3cfc4158	0.030792877
169	0x3e61b46d	0.22041483
170	0xbe97f8da	-0.29682046
171	0x3e6ad7b8	0.22933853
172	0xbe85ab66	-0.2610733
173	0x3e9e8085	0.30957428
174	0xbe48ff3f	-0.19628619
175	0xbc858fa7	-0.01630385
176	0x3e9d535c	0.3072766
177	0x3e8982cd	0.26857606
178	0x3e5b3725	0.21407755
179	0x3e46875e	0.19387576
180	0xbe7690d3	-0.24078684
181	0xb9ec3624	-0.00045053766
182	0x3dcc497f	0.09974956
183	0xbd5330ba	-0.05156014
184	0x3e9340c7	0.2876036
185	0xbe9f01ea	-0.31056148
186	0x3e41eb80	0.18937492
187	0xbeaf3afb	-0.34224686
188	0xbdc80227	-0.097660355
189	0xbd11348b	-0.0354505
190	0xbdec5ce5	-0.11541156
191	0x3c6c30eb	0.01441596
192	0x3e95609e	0.29175276
193	0x3c5f42d5	0.013626774
194	0x3df64c32	0.12026252
195	0xbe36a587	-0.17836581
196	0xbe2d7280	-0.1693821
197	0xbe4a0da1	-0.19731762
198	0x3de4c07f	0.11169528
199	0x3e168e18	0.14702642
200	0xbeac2f17	-0.33629677
201	0x3e97bd51	0.29636624
202	0xbd244eec	-0.04011433
203	0xbe812c54	-0.25229132
204	0xbe9f4970	-0.31110716
205	0xbce990d0	-0.028511435
206	0xbe79eb06	-0.2440606
207	0x3ca66add	0.020314628
208	0x3e0580e4	0.13037449
209	0xbe825c45	-0.2546102
210	0xbdd2fd3a	-0.103022054
211	0xbe7dcc04	-0.24784857
212	0x3e254ed5	0.16143353
213	0xbe0e5c2e	-0.13902351
214	0xbd7ea018	-0.062164396
215	0xbeb5aeb2	-0.35484844
216	0x3e2d9bdb	0.16953985
217	0x3daa8580	0.08326244
218	0xbe7d92e0	-0.2476306
219	0xbe3d2943	-0.18472771
220	0xbe5feeaa	-0.21868387
221	0xbea96d6b	-0.33091292
222	0xbe5d0600	-0.2158432
223	0x3e26d9e1	0.16294052
224	0xbea23f45	-0.31688896
225	0x3e1be345	0.15223415
226	0xbe716e99	-0.23577346
227	0xbe262086	-0.16223344
228	0x3c9da645	0.019244323
229	0xbd9b1c76	-0.07573788
230	0xbdbb213d	-0.09137199
231	0x3d20b9a3	0.039239537
232	0x3e118ca8	0.14213812
233	0xbe84bc80	-0.25925064
234	0xbe5679d6	-0.20944914
235	0xbe45bdd7	-0.193107
236	0xbe9dea3f	-0.30842778
237	0x3db3e004	0.08782962
238	0x3e2a3cb4	0.16624719
239	0xbe163a45	-0.14670666
240	0x3d955713	0.07291999
241	0xbe0cb13c	-0.13739485
242	0x3d9d6017	0.07684343
243	0x3eb2c915	0.34919038
244	0xbeaa59db	-0.3327168
245	0xbd1e9d51	-0.038724247
246	0xbbefa84d	-0.007313764
247	0xbe311bbf	-0.1729574
248	0x3e0a05bb	0.13478749
249	0xbca058ea	-0.019573648
250	0x3e3ac00b	0.18237321
251	0x3e165dfb	0.14684288
252	0xbe15ad88	-0.14616978
253	0xbce1bd16	-0.027555984
254	0x3e2d20c2	0.16907027
255	0x3dd4bf17	0.1038801

get_operations.0.gnn_layers.0.project.0.bias f4 [128]
0	0xbe43c59b	-0.19118349
1	0xbd868646	-0.065685794
2	0x3e9cbe78	0.30614066
3	0x3ea44c1d	0.3208932
4	0xbe33792b	-0.1752669
5	0xbe395da6	-0.1810213
6	0xbe5e525a	-0.21711102
7	0x3e868912	0.2627645
8	0x3ea6c653	0.32573184
9	0xbe8f8f36	-0.2803895
10	0x3e64a013	0.22326688
11	0x3e90d889	0.28290203
12	0x3e267678	0.1625613
13	0x3ea80458	0.32815814
14	0xbd050751	-0.03247768
15	0xbd94aa5e	-0.072590575
16	0xbd84083f	-0.06446885
17	0xbcba2c7e	-0.022726294
18	0x3e70c78e	0.23513624
19	0xbe43b19e	-0.19110724
20	0xbd5e3fc3	-0.054260027
21	0x3e8f8074	0.2802769
22	0xbea51a5a	-0.32246667
23	0xbeab4717	-0.33452675
24	0x3e1d9eff	0.15392683
25	0xbdcb9132	-0.09939803
26	0x3e0292f0	0.12751365
27	0x3e6b2d7f	0.22966574
28	0xbe0aae19	-0.13542975
29	0x3e13609e	0.14392325
30	0xbca29f13	-0.019851243
31	0xbe9ebeef	-0.31005046
32	0xbe9f0403	-0.31057748
33	0x3e8e0716	0.2773978
34	0xbdd7b3ee	-0.10532366
35	0x3e85dcb7	0.26144955
36	0x3dc5d77b	0.0966024
37	0xbdc9f166	-0.09860496
38	0xbc9af0fa	-0.018913735
39	0x3e72b764	0.2370277
40	0x3d4af72b	0.049552124
41	0xbd33671f	-0.043799516
42	0xbe72e9fa	-0.23722067
43	0x3c03ca27	0.008043802
44	0x3e466fed	0.19378634
45	0xbcce656e	-0.02519485
46	0xbd6f4866	-0.058418654
47	0xbe0d641d	-0.13807721
48	0xbeb0a7bc	-0.3450297
49	0x3da69bcf	0.08135187
50	0xbe15f73c	-0.14645094
51	0xbe154b0a	-0.14579406
52	0xbe03e751	-0.12881209
53	0xbe80e3d1	-0.2517381
54	0xbdbbb997	-0.09166258
55	0xbeb1b591	-0.34708837
56	0xbdbec751	-0.0931536
57	0xbe3210af	-0.17389177
58	0xbd7fb2c8	-0.06242636
59	0x3eada980	0.3391838
60	0x3e649fac	0.22326535
61	0xbe3b030e	-0.18262884
62	0x3d1ab014	0.037765577
63	0x3c6a1ce7	0.014289117
64	0x3e995bc5	0.29952827
65	0x3e5f5176	0.21808419
66	0xbdfb2dda	-0.12264605
67	0x3dfaffcd	0.122558214
68	0x3e25de71	0.16198136
69	0xbe2c313e	-0.1681566
70	0x3e262741	0.16225912
71	0x3e1abde9	0.15111507
72	0x3e9b7780	0.3036461
73	0x3cdd1c45	0.026991019
74	0x3ccdf929	0.025143223
75	0x3d50647d	0.050877083
76	0xbe42d458	-0.19026315
77	0xbe9055b3	-0.28190383
78	0x3e0279fb	0.12741844
79	0xbd4d8a61	-0.050180797
80	0x3e90807f	0.28223035
81	0xbdbc914d	-0.092074014
82	0x3da56856	0.08076541
83	0xbdff401a	-0.12463398
84	0xbe6e253c	-0.23256391
85	0x3e2b7ce2	0.16746858
86	0x3e0056db	0.12533133
87	0xbe3ce8a9	-0.18448128
88	0x3e476ba9	0.19474663
89	0xbdf0351d	-0.117288806
90	0x3c5adfb0	0.013358995
91	0xbe7d4e8e	-0.24736997
92	0x3ae6af9d	0.0017599944
93	0x3e6f41be	0.23364922
94	0xbe59bb1b	-0.21262781
95	0xbeac5ea3	-0.33665952
96	0x3de5fcdc	0.1122987
97	0x3e39a8ec	0.18130845
98	0x3dcaf286	0.09909539
99	0xbea5e971	-0.32404664
100	0x3e4b4380	0.19849968
101	0xbead0fab	-0.33801016
102	0x3dc3b37e	0.0955572
103	0x3cad66eb	0.02116724
104	0x3e9468e8	0.28986287
105	0xbd56ed7c	-0.052472576
106	0x3d9af7e5	0.075668134
107	0x3def52c4	0.11685708
108	0xbe638d86	-0.22221956
109	0x3d76128f	0.060076293
110	0x3e468c37	0.19389425
111	0xbe3ba94b	-0.18326299
112	0xbe3b99d2	-0.18320397
113	0xbe0686b8	-0.13137329
114	0xbdb18db1	-0.086696036
115	0xbea04684	-0.313038
116	0xbdafa538	-0.08576435
117	0x3e69e197	0.22839962
118	0xbc1fb348	-0.009747334
119	0xbd687741	-0.056754354
120	0xbe1628b3	-0.14663963
121	0x3d51c9e3	0.051217925
122	0x3e4fb43a	0.20283595
123	0xbd284744	-0.04108359
124	0x3e285bb1	0.16441227
125	0x3e2e4cf5	0.17021544
126	0x3e62ce7a	0.22149077
127	0x3e69dddf	0.22838543

get_operations.0.gnn_layers.0.project.2.weight f4 [128, 128]
0	0xbd1098cb	-0.035301965
1	0xbc413feb	-0.011795024
2	0x3dbd0eca	0.092313364
3	0xbb1544cc	-0.0022776602
4	0xbddf94a7	-0.10917025
5	0xbd80c476	-0.06287472
6	0xbdb949ef	-0.09047305
7	0xbd140ec6	-0.0361469
8	0xbd4015ec	-0.046895906
9	0x3da1fcff	0.07909583
10	0x3da2f751	0.07957328
11	0x3d1204f7	0.035649266
12	0x3d94fb3c	0.07274482
13	0x3d8efcf8	0.06981844
14	0xbd84285c	-0.064530104
15	0xbcaebff0	-0.021331757
16	0x3d0782f4	0.03308387
17	0x3d49368c	0.049124286
18	0x3d30be55	0.043150265
19	0x3cbe3007	0.02321626
20	0x3cb01843	0.021495944
21	0xbcb58d53	-0.022162115
22	0x3d1d69e7	0.038431074
23	0xbd4c8d3d	-0.049939383
24	0x3d8dd2ff	0.0692501
25	0x3d568b7d	0.05237912
26	0x3da4c85a	0.080460265
27	0xbc0b9765	-0.008519982
28	0xbcf5f462	-0.030023757
29	0x3caf2315	0.021379033
30	0xbd70d01c	-0.05879222
31	0x3c907339	0.017633067
32	0xbab3392d	-0.0013673656
33	0x3d285ae9	0.041102324
34	0x3d0f0a99	0.034922216
35	0xbd5c377c	-0.05376385
36	0x3db1ad01	0.08675576
37	0xbb828256	-0.0039828224
38	0xbacbc873	-0.001554741
39	0x3beeaa90	0.007283516
40	0x3cdbf6f1	0.02685115
41	0x3d990e6c	0.07473454
42	0xbd96fdb9	-0.073726125
43	0x3c460dae	0.012088222
44	0x3b9dcaf6	0.0048154546
45	0x3ce0c816	0.027439158
46	0xbd7766d8	-0.060400814
47	0x3ccb7a9a	0.024838734
48	0x3c873b24	0.016507693
49	0xbc29c3e5	-0.010361646
50	0x3d655715	0.05599125
51	0x3ba40b1f	0.0050062086
52	0x3d4f5bc8	0.05062464
53	0xbcafe8ae	-0.021473255
54	0xbcf4db9f	-0.02988988
55	0xbcedcede	-0.029029306
56	0xbcea7049	-0.028617995
57	0x3db6895d	0.08912919
58	0xba2b9d5a	-0.00065465795
59	0x3d509137	0.050919738
60	0x3d8b2304	0.06793788
61	0xbcc4a0b3	-0.024002409
62	0xbd38feca	-0.04516486
63	0xba9af3fd	-0.0011821982
64	0x3cd281df	0.025696693
65	0x3bd86d16	0.006604801
66	0x3d301040	0.042984247
67	0xbca4aa5f	-0.02010077
68	0xbd0b5975	-0.03402086
69	0x3d7845f8	0.060613602
70	0x3d20e45c	0.03928028
71	0xbd2dc3e2	-0.042423137
72	0x3d03937e	0.03212308
73	0x3cc86a46	0.024464738
74	0xbc9c48c7	-0.019077672
75	0xbd76d679	-0.06026313
76	0x3d12e3ac	0.035861656
77	0x3d69e5f6	0.057104073
78	0x3cf7bdea	0.030241925
79	0x3d91cf77	0.07119649
80	0xbbf819ff	-0.0075714584
81	0xbd8c130d	-0.06839571
82	0x3c5536c5	0.013013546
83	0xbce06365	-0.027391145
84	0xbd63e5b3	-0.05563898
85	0xbcd29ca7	-0.025709463
86	0xbcc5a96d	-0.02412864
87	0xbd854a55	-0.06508318
88	0x3d744b70	0.059642255
89	0xbc5b8442	-0.013398232
90	0xbd6f3876	-0.058403455
91	0x39b0449d	0.00033620457
92	0x3d9def00	0.07711601
93	0x3c934d16	0.017981093
94	0x3bbfbd7d	0.005851446
95	0x3dac69e8	0.084186375
96	0x3dae61f3	0.08514776
97	0x3bc99b0f	0.0061525176
98	0xbdaec6c8	-0.08534008
99	0x3d11c494	0.035587862
100	0xbda8104b	-0.08206233
101	0x3c2274cc	0.009915542
102	0x3dcc4b4a	0.09975298
103	0x3c5f8ee6	0.0136449095
104	0xbdbee9b1	-0.09321917
105	0x3da17491	0.078835614
106	0xbbbfd68f	-0.005854435
107	0x3cc8fc36	0.024534326
108	0x3d16c83d	0.036812056
109	0x3d107c3d	0.035274733
110	0x3c0876ac	0.008329075
111	0x3d4dcf11	0.050246302
112	0xbc65dc73	-0.01402961
113	0xbd10e976	-0.035378896
114	0xbd952ce5	-0.072839536
115	0x3cb94e3b	0.022620311
116	0x3d87b241	0.06625796
117	0x3bbddd54	0.0057942066
118	0xbd599c00	-0.05312729
119	0x3d661276	0.05616995
120	0x3ca212c5	0.01978434
121	0x3ce11d13	0.027479684
122	0x3ab05f4a	0.0013456133
123	0xbdc1bea1	-0.09460188
124	0xbc89240d	-0.016740823
125	0xbd395bcc	-0.04525356
126	0xbd9c81c1	-0.07641936
127	0xbd54eb5a	-0.05198226
128	0x3cce0dc9	0.025153058
129	0xbd8e6cb1	-0.06954325
130	0x3d7d7f73	0.061889123
131	0x3d6deaaf	0.05808514
132	0xbc80ae93	-0.015708243
133	0xbd7cfbc9	-0.06176356
134	0xbb4c4a08	-0.0031172056
135	0xbdacce10	-0.08437741
136	0x3d39d600	0.045370102
137	0x3d5b415e	0.053529136
138	0xbdbf5c4f	-0.09343778
139	0xbdaf377b	-0.08555504
140	0x3cb4222f	0.021988956
141	0xbcc0d9df	-0.023541389
142	0x3d4f05e9	0.050542746
143	0xbc9e12e6	-0.01929612
144	0x3ca2bc12	0.01986507
145	0xbd5a3d5e	-0.05328118
146	0x3d8bd876	0.06828396
147	0x3d8119a6	0.0630372
148	0x3d2e72d0	0.042589962
149	0x3d1435bf	0.03618407
150	0x3d8d6e4e	0.069058046
151	0x3dad7bb0	0.08470857
152	0x3d4c1cd4	0.04983218
153	0x3d69aebf	0.057051416
154	0x3d5b72a2	0.05357612
155	0xbadc04a4	-0.0016786051
156	0x3dae6aa9	0.085164376
157	0xbd4454f9	-0.0479326
158	0xbc3d9ce9	-0.011573055
159	0xbcb2d266	-0.021828841
160	0x3d804298	0.06262702
161	0xbd6dc2c1	-0.05804706
162	0xbd1f46a3	-0.038885724
163	0xbd4d03b2	-0.050052352
164	0x3c05b08c	0.008159768
165	0x3d0710de	0.03297507
166	0x3ce80b8d	0.02832582
167	0x3cdf376d	0.027248109
168	0xbbe59051	-0.0070057292
169	0xbd8f2f61	-0.06991459
170	0xbd984e86	-0.07436852
171	0xbd3e3bc7	-0.046443727
172	0x3a00ca49	0.00049129553
173	0xbd58cb9f	-0.052928563
174	0xbd7390ac	-0.05946414
175	0x3d96ed2a	0.07369454
176	0x3d0b7790	0.03404957
177	0xbcab7995	-0.020931998
178	0x3ca6e378	0.020372137
179	0x3d1242aa	0.035708107
180	0x3d913d9e	0.07091831
181	0x3d9b1568	0.07572442
182	0xbcfabf82	-0.030608896
183	0x3d10265c	0.035192832
184	0x3d4a531c	0.049395666
185	0x3d72c847	0.05927303
186	0x3d281cdf	0.04104316
187	0x3d4b915c	0.049699172
188	0xbc82878d	-0.015933776
189	0x3c040a98	0.008059166
190	0xbdaa7133	-0.08322372
191	0xbd6103db	-0.054935317
192	0x3cdc8c48	0.02692236
193	0x3d10eedb	0.03538404
194	0xbd966a46	-0.07344489
195	0x3cdf43e4	0.027254052
196	0x3c6f26be	0.014596639
197	0x3ca2b81d	0.019863183
198	0xbda02f93	-0.07821574
199	0xbdb6e76c	-0.08930859
200	0xbd21d5ac	-0.039510414
201	0xbd945325	-0.07242421
202	0x3c9a443d	0.018831367
203	0xbb041476	-0.0020153797
204	0xbb813551	-0.0039431234
205	0xbd34ced5	-0.044142563
206	0x3db8a360	0.09015536
207	0x3d9da94d	0.07698307
208	0x3dbeb406	0.093116805
209	0xbd68b054	-0.056808785
210	0xbce7fb61	-0.028318109
211	0x3d868ffb	0.06570431
212	0xbcdb916c	-0.026802741
213	0x3cb89f80	0.022536993
214	0x3d5ba488	0.053623706
215	0xbd2a3b62	-0.041560538
216	0xbd1e5a8e	-0.03866058
217	0x3d41e737	0.047339644
218	0xbd6b38d4	-0.057427242
219	0xb9ec91cb	-0.00045122052
220	0x3d9ec3eb	0.07752212
221	0xbd40aa74	-0.047037557
222	0xbd6d80dd	-0.05798422
223	0xbc9c28f3	-0.019062495
224	0xbd8e1d06	-0.069391295
225	0x3d571b8c	0.052516505
226	0xbd4d9529	-0.05019108
227	0xbcb4d9b0	-0.022076458
228	0xbda0ff12	-0.07861151
229	0xbc38169d	-0.01123586
230	0xbd2365ca	-0.039891995
231	0xbc9a1af9	-0.01881169
232	0xbdb13b48	-0.08653885
233	0xbd72dcb0	-0.059292495
234	0x3d85c14e	0.065310106
235	0x3d572667	0.052526858
236	0x3d5837f8	0.05278775
237	0x3d2c4e4c	0.042066857
238	0x3dc5edd7	0.09664505
239	0x3d510f4e	0.051039986
240	0x3d40fe12	0.0471173
241	0x3d7cd77d	0.061728943
242	0x3d41d84e	0.047325425
243	0x3d8c1c80	0.068413734
244	0xbce903d9	-0.028444218
245	0xbd552c00	-0.052043915
246	0xbd82410f	-0.06360065
247	0xbd4de44c	-0.05026655
248	0xbcbd29f7	-0.0230913
249	0xbc0d98b3	-0.008642363
250	0xbda1f66a	-0.07908328
251	0xbdaec275	-0.085331835
252	0x3d9a0c64	0.075218946
253	0x3bf74fd8	0.00754736
254	0x3c3b2507	0.011422402
255	0x3cdbf4d4	0.026850142

get_operations.0.gnn_layers.0.project.2.bias f4 [128]
0	0xbd7460d5	-0.05966266
1	0xbd11d61c	-0.03560458
2	0x3d9c0940	0.07618952
3	0xbd82e807	-0.06391912
4	0xbd41e50f	-0.047337588
5	0x3d9d774d	0.076887704
6	0xbd9b3d83	-0.07580092
7	0x3cf3abf9	0.029745089
8	0xbd5b8eea	-0.05360309
9	0xbcc3a96f	-0.023884503
10	0xbd6da9ed	-0.058023382
11	0x3d50afcd	0.050948907
12	0xbbacd607	-0.0052745375
13	0x3d97dadf	0.07414793
14	0xbd248aef	-0.04017156
15	0xb9ebab65	-0.00044950392
16	0x3a9c8096	0.0011940177
17	0x3d9d0a97	0.076680355
18	0xbd301a24	-0.04299368
19	0x3d399533	0.045308303
20	0x3dc4dd16	0.09612481
21	0xbd1f4780	-0.038886547
22	0xbc47876f	-0.012178286
23	0x3cd9de8b	0.026595375
24	0xbc82f7fc	-0.015987389
25	0x3ac2e5cf	0.0014869514
26	0xbdb812f6	-0.089879915
27	0xbc84fabd	-0.016232843
28	0xbdacc56d	-0.084360935
29	0xbd892b0e	-0.06697665
30	0x3cde8370	0.027162284
31	0x3d24223b	0.040071707
32	0x3d9752ec	0.07388863
33	0xbbd7d814	-0.006587038
34	0x3d1031ac	0.03520362
35	0xbda4106f	-0.08010947
36	0xbd56e66a	-0.052465834
37	0xbd72c052	-0.059265442
38	0x3d83e53a	0.06440206
39	0x3d8c217b	0.068423234
40	0xbd711156	-0.058854423
41	0x3d9ff2a8	0.07809955
42	0x3d7a111c	0.061051473
43	0xbc61689d	-0.013757852
44	0x3d25fbde	0.040523402
45	0xbba4befe	-0.005027651
46	0xbccd94c9	-0.02509536
47	0x3d9af342	0.07565929
48	0x3d6c7717	0.05773076
49	0xbda95018	-0.0826723
50	0xbdbb10aa	-0.09134038
51	0xbd954d3a	-0.072901204
52	0xbd89e2ca	-0.0673271
53	0x3c846ab1	0.016164156
54	0x3d25890e	0.04041391
55	0xbda09a85	-0.07841972
56	0x3d6a5748	0.057212144
57	0xbc2fbfc2	-0.010726871
58	0xbcd11a42	-0.025525216
59	0xbd389356	-0.045062385
60	0x3c09abb4	0.008402754
61	0x3c3a2175	0.011360516
62	0xbb6bbde1	-0.003597133
63	0x3d6f52e7	0.05842867
64	0xbd0ad36f	-0.033893045
65	0xbcecc63c	-0.02890312
66	0x3dcc9ddf	0.09991049
67	0x3cbf9fe4	0.023391671
68	0x3d89d41b	0.06729909
69	0x3c65a185	0.01401556
70	0xbcefaab4	-0.029256202
71	0xbd3beb12	-0.045878477
72	0xbd1fa0e4	-0.038971797
73	0x3caeb385	0.021325836
74	0x3cb61b91	0.022229942
75	0x3d5e4c42	0.054271944
76	0xbda8740b	-0.082252584
77	0x3d999d38	0.0750069
78	0x3c7635e6	0.015027499
79	0x3cfbf65f	0.030757127
80	0x3d81734a	0.06320818
81	0x3da7ae36	0.08187525
82	0x3d9f856c	0.0778912
83	0x3d00ba0c	0.031427428
84	0xbd939f2c	-0.07208094
85	0x3c49fe49	0.012328693
86	0xbd7f7ba0	-0.062373757
87	0xbcbab8f2	-0.022793267
88	0x3d9b130d	0.07571993
89	0xbd75aab8	-0.059977263
90	0x3b2ac34d	0.002605635
91	0xbc23d010	-0.009998336
92	0xbd61e279	-0.05514762
93	0xbcd28a53	-0.025700724
94	0x3d10d255	0.03535684
95	0x3d5afe73	0.053465318
96	0xbd09fd71	-0.033688966
97	0x3c97fc05	0.01855279
98	0xbc801b53	-0.01563803
99	0xbd51cded	-0.051221777
100	0xbd90703f	-0.07052659
101	0xbd6a7cca	-0.057247914
102	0x3daae45c	0.08344337
103	0xbdc09928	-0.09404212
104	0x3cc76c8e	0.024343755
105	0xbd0aa6ee	-0.033850603
106	0xb93b3e74	-0.00017856975
107	0x3b6ff162	0.0036612381
108	0xbda66966	-0.08125572
109	0x3d7c5dc3	0.061612856
110	0x3d0ee796	0.034888826
111	0xbd9b711b	-0.075899325
112	0x3d60df24	0.054900303
113	0x3d00a1f3	0.031404447
114	0xbd6aa092	-0.057282038
115	0x3d577b84	0.052608028
116	0x3d2d8a07	0.04236796
117	0xbb65eec6	-0.0035084947
118	0x3c85dc42	0.016340379
119	0x3d01dba3	0.031703603
120	0x3d8c3125	0.06845311
121	0xbdb08212	-0.08618559
122	0xbd5981ec	-0.05310242
123	0x3c54f7b5	0.012998511
124	0xbb23153d	-0.0024884485
125	0xbd4aebe2	-0.04954136
126	0x3cc6f6aa	0.02428754
127	0xbc1512ab	-0.009098689

get_operations.0.gnn_layers.0.project.4.weight f4 [8, 128]
0	0xbda4f658	-0.08054799
1	0xbd94256e	-0.07233702
2	0xbdbdd16c	-0.0926846
3	0xbda74723	-0.08167865
4	0xbd188b70	-0.037242353
5	0xbd77456e	-0.060368948
6	0x3d98ff54	0.07470575
7	0x3daf07c3	0.08546402
8	0x3d7f2315	0.062289316
9	0x3d654836	0.05597707
10	0xbd98cbee	-0.074607715
11	0x3da18921	0.078874834
12	0x3d875a94	0.06609073
13	0xbd8f2c7b	-0.06990906
14	0x3d5af967	0.053460505
15	0xbd1991d4	-0.03749259
16	0xbd46dbf0	-0.048549592
17	0x3d621531	0.05519599
18	0xbcc7f01b	-0.024406483
19	0xbd683d0a	-0.056698836
20	0xbc2e1e20	-0.0106273
21	0xbd9f88db	-0.07789775
22	0xbd5a2821	-0.053260926
23	0x3c29c9eb	0.010363082
24	0xbdbebf34	-0.09313813
25	0x3d930c61	0.071800955
26	0xbd7812ba	-0.060564734
27	0xbb818144	-0.0039521772
28	0x3c7fae22	0.015605481
29	0xbd56f357	-0.05247816
30	0xbc9be378	-0.019029364
31	0x3d43abf8	0.047771424
32	0xbd878568	-0.06617242
33	0x3c924ca7	0.017858816
34	0xbd6514ef	-0.055928167
35	0x3d262daf	0.04057091
36	0xbd302c72	-0.043011136
37	0x3d0861fc	0.03329657
38	0x3d519018	0.05116281
39	0x3d7303ec	0.059329912
40	0x3dc62d2d	0.09676585
41	0xbcb11313	-0.02161554
42	0x3c1a8fe3	0.009433719
43	0xbd872900	-0.06599617
44	0xbc4d7767	-0.012540675
45	0xbd9637fb	-0.07334896
46	0x3c897961	0.01678151
47	0x3d25801a	0.04040537
48	0xbd08f9d9	-0.0334414
49	0xbd965482	-0.07340337
50	0xbd55ac1c	-0.05216609
51	0x3bdfc1ce	0.0068285232
52	0xbda721a4	-0.08160713
53	0xbb8d8aac	-0.0043195095
54	0xbbd69f6b	-0.006549766
55	0xbd46ec5b	-0.04856525
56	0xbd9b7afa	-0.07591815
57	0x3d82198d	0.0635253
58	0xbc602270	-0.013680086
59	0x3da23be1	0.07921577
60	0xbdaa9b38	-0.08330387
61	0xbd967cb7	-0.07348006
62	0xbdae8ed8	-0.08523339
63	0x3d0ea936	0.03482934
64	0x3ced2af7	0.028951151
65	0x3d86a2ee	0.06574045
66	0x3dd4b05b	0.103852
67	0x3d929d73	0.07158937
68	0x3d3f9ec7	0.04678228
69	0xbbc28e55	-0.0059373775
70	0xba90d815	-0.0011050726
71	0x3d782f2a	0.060591854
72	0x3cc9d6c2	0.024638537
73	0x3d44ae25	0.04801764
74	0x3d312f74	0.043258145
75	0x3da8a1ef	0.082340114
76	0xbd5d8f51	-0.054091755
77	0xbd984466	-0.07434921
78	0x3d16a873	0.03678174
79	0xbcb37561	-0.021906557
80	0xbdc9ddef	-0.098567836
81	0x3c1b8334	0.0094917305
82	0xbdbe2742	-0.092848316
83	0x3d6d81c1	0.05798507
84	0xbd5897cc	-0.05287914
85	0xbb7a878c	-0.0038227765
86	0xbd0cf40a	-0.03441242
87	0x3c9af2ba	0.01891457
88	0xbcc8a51a	-0.024492789
89	0xbd70e9a9	-0.058816586
90	0xbb400892	-0.0029301983
91	0xbd94e961	-0.07271076
92	0xbdca97bb	-0.098922215
93	0x3cb87be1	0.022520008
94	0xbd651bdc	-0.055934772
95	0x3b3f454d	0.0029185594
96	0xbdac95de	-0.084270224
97	0x3d956a3f	0.072956555
98	0xbdc77e8a	-0.09740932
99	0xbd851752	-0.064985886
100	0xbd1368b3	-0.03598852
101	0x3d6348bb	0.055489283
102	0xbc5a9b01	-0.01334262
103	0x3c39e4d0	0.011346057
104	0xbd9e1f36	-0.07720797
105	0xbd53660e	-0.051611
106	0xbd8d7ad5	-0.06908194
107	0xbdbedd26	-0.093195245
108	0x3ce74f51	0.028236063
109	0x3c0067e0	0.007837266
110	0x3cadc047	0.021209849
111	0xbdc2ed63	-0.09517934
112	0x3d04b516	0.03239926
113	0xbc38bdba	-0.011275703
114	0x3c66ba0b	0.014082442
115	0x3d630eae	0.05543392
116	0x3d67e80d	0.056617785
117	0xbd66748d	-0.056263495
118	0x3d17e5c1	0.037084345
119	0xbda30be5	-0.07961253
120	0x3d880caa	0.066430405
121	0xbcf9e143	-0.030502921
122	0xbdb531b4	-0.08847371
123	0x3d8d1bd3	0.06890073
124	0x3d4a8c53	0.04945023
125	0x3d064644	0.032781854
126	0xbd3e679d	-0.046485532
127	0x3d6728c2	0.056435354
128	0xbd3ecd9d	-0.046582807
129	0x3d27beea	0.040953554
130	0xbd54d8ea	-0.051964678
131	0x3d5d21b4	0.05398722
132	0x3d66bce1	0.056332473
133	0x3d2a550b	0.04158501
134	0xbc81bcb7	-0.015837057
135	0x3d6ac8be	0.05732035
136	0x3d6f350f	0.05840021
137	0xbd9d7b6b	-0.07689556
138	0x3d096dcc	0.033551976
139	0xbc5927e8	-0.013254143
140	0x3ca63da3	0.020293063
141	0xbcaba366	-0.020951938
142	0xbd132a00	-0.035928726
143	0xbc32b929	-0.010908403
144	0x3d329b90	0.043605387
145	0xbd54c957	-0.051949825
146	0x3c9627e2	0.018329564
147	0x3d26f4c3	0.040760767
148	0xbdbec639	-0.09315152
149	0x3d787a61	0.060663585
150	0x3c0d83f1	0.008637414
151	0x3cde4616	0.027133029
152	0x3abec5dc	0.0014554816
153	0xbd431d9b	-0.047635656
154	0x3c51c2bb	0.012802775
155	0xbd1788b0	-0.03699559
156	0x3ca4d5fe	0.02012157
157	0xbd87dc8e	-0.06633864
158	0x3d1ce7bc	0.038306937
159	0xbd268edd	-0.04066359
160	0xbb86958a	-0.004107182
161	0x3cd6cc64	0.026220508
162	0x3d66370d	0.056204844
163	0xbdab267c	-0.0835695
164	0xbd82d42d	-0.063881256
165	0x3dacfc43	0.084465526
166	0x3d989a9b	0.07451364
167	0xbd8ad335	-0.06778566
168	0x3d94b661	0.072613485
169	0x3c9b162c	0.01893147
170	0xbd2e7cff	-0.042599674
171	0xbb856c2e	-0.004071734
172	0x3d34e9b2	0.04416818
173	0xbd0310dc	-0.0319985
174	0xbdce49fd	-0.10072706
175	0x3ba83635	0.005133415
176	0x3d604004	0.05474855
177	0x3c8325f1	0.016009303
178	0x3dd01a84	0.101613075
179	0xbd677ab2	-0.056513496
180	0xbd7a625a	-0.06112895
181	0xbb7ca9b0	-0.003855329
182	0x3d323ae3	0.04351319
183	0xbd2fbb4f	-0.04290324
184	0xbdd6d5f0	-0.10490024
185	0x3d81577f	0.06315517
186	0xbda1272f	-0.07868802
187	0xbade5ade	-0.0016964336
188	0xbd05200e	-0.032501273
189	0xbdac588d	-0.08415327
190	0x3cb84aff	0.022496698
191	0x3b15f866	0.0022883653
192	0x3d2dc1dd	0.04242121
193	0x3c950b90	0.01819399
194	0x3cb776a4	0.02239544
195	0xbd48b63f	-0.04900193
196	0x3d10c95b	0.035348278
197	0xbd5356fc	-0.051596627
198	0x3d3ba5a4	0.045812264
199	0xbbc6d6c3	-0.006068082
200	0x3d4ee234	0.050508693
201	0x3d0515cc	0.03249149
202	0xbd2bb77c	-0.04192303
203	0x3d3b06e5	0.045660872
204	0xbccdcb4b	-0.025121352
205	0xbd830726	-0.06397848
206	0x3d90f138	0.07077259
207	0x3d9d3600	0.07676315
208	0x3c468d94	0.012118716
209	0x3dd769cf	0.10518228
210	0x3ca7835c	0.02044838
211	0x3d5b4b3d	0.05353855
212	0xbd21d9ee	-0.039514475
213	0x3d1a89e3	0.037729155
214	0xbdcb470d	-0.09925661
215	0x3c3450d2	0.011005597
216	0x3d277a22	0.04088796
217	0x3d30fd8e	0.04321056
218	0xbd271a2e	-0.04079645
219	0xbdaa7beb	-0.08324417
220	0xbd6dfeae	-0.05810421
221	0x3cf60558	0.030031845
222	0x3b121d8f	0.002229545
223	0x3c698418	0.014252685
224	0x3d743073	0.059616517
225	0xbd9b76a7	-0.075909905
226	0xbd574344	-0.052554384
227	0x3d3249e0	0.043527484
228	0xbd6bc120	-0.057557225
229	0x3cedb8df	0.029018817
230	0xbd8b5235	-0.06802789
231	0x3d27ab7f	0.040935036
232	0xbd9b4cfb	-0.07583042
233	0xbd80d8a2	-0.062913194
234	0x3c01ccf1	0.007922397
235	0xbc284a37	-0.0102716
236	0x3d10d34e	0.035357766
237	0xbd2d63d0	-0.042331517
238	0x3cd36750	0.0258061
239	0xbdcebb87	-0.10094362
240	0xbcba14a7	-0.022714926
241	0xbd6e692a	-0.05820576
242	0x3dc67372	0.09689988
243	0xbd9e6ca4	-0.07735565
244	0xbcca456e	-0.02469131
245	0x3c59c3ab	0.01329128
246	0xbd490853	-0.049080204
247	0xbd89ac28	-0.06722289
248	0x3d4c032f	0.049807724
249	0xbd5d4904	-0.05402471
250	0xbd782d45	-0.060590047
251	0x3dcb856d	0.09937558
252	0xbd00acfe	-0.03141498
253	0xbd965980	-0.073412895
254	0xbcff910b	-0.031197092
255	0x3d939c76	0.07207577

get_operations.0.gnn_layers.0.project.4.bias f4 [8]
0	0x3d235fc5	0.039886255
1	0xbc7440d6	-0.014908036
2	0x3d05b3f3	0.032642316
3	0xbd751210	-0.05983168
4	0xbcd94145	-0.02652038
5	0xbcd2245e	-0.025652107
6	0xbdae92d4	-0.08524099
7	0x3d883983	0.066515945

get_operations.0.gnn_layers.1.project.0.weight f4 [128, 6]
0	0xbeb52fbe	-0.35387987
1	0x3dd93405	0.10605625
2	0x3eb3c13c	0.35108364
3	0xbe9785ff	-0.29594418
4	0x3e6c3f2f	0.23070978
5	0xbe9581e0	-0.2920065
6	0xbd12d17e	-0.03584432
7	0x3eac2c1d	0.33627406
8	0x3e84329e	0.25819868
9	0x3ed0924e	0.40736622
10	0xbe8bd690	-0.27312136
11	0xbe67a6c8	-0.22622216
12	0xbe7387bf	-0.23782252
13	0xbe908acc	-0.28230894
14	0x3c84de7b	0.016219368
15	0x3e41d7dd	0.18930002
16	0xbe8f0210	-0.2793126
17	0xbd4123f8	-0.047153443
18	0x3d1b52d4	0.037920788
19	0xbdb7ebd7	-0.0898053
20	0xbea5b0ef	-0.32361552
21	0x3e0e942e	0.13923714
22	0x3d82a7b0	0.0637964
23	0xbeb6267d	-0.3557624
24	0x3ebaf0fb	0.36511979
25	0xbe8c4b86	-0.2740137
26	0x3ecb21ff	0.39674374
27	0x3eb3c00a	0.35107452
28	0xbde8d3de	-0.113685355
29	0xbe90e2df	-0.2829809
30	0xbed8ae98	-0.42320704
31	0xbd744492	-0.059635706
32	0x3e936766	0.28789824
33	0x3bcba7af	0.006215058
34	0xbe817cab	-0.25290427
35	0xbdfa7152	-0.122286454
36	0xbe496258	-0.19666421
37	0x3e867205	0.26258865
38	0x3e76c743	0.2409945
39	0x3e99dcdc	0.30051315
40	0xbe26a662	-0.16274408
41	0x3d02af81	0.031905655
42	0x3ed472fa	0.4149397
43	0xbec568b2	-0.3855644
44	0xbea0669d	-0.31328288
45	0xbe49a8e1	-0.19693328
46	0x3e8ad272	0.27113682
47	0x3c11ac72	0.008891212
48	0x3ea2e25d	0.31813326
49	0xbe86f3e5	-0.26357952
50	0x3dcab58c	0.098979086
51	0xbe4c8de6	-0.19976005
52	0xbeb6ba21	-0.3568888
53	0xbe496f7b	-0.19671433
54	0x3e91d36a	0.2848161
55	0xbe35b8a2	-0.17746213
56	0xbd0fb1af	-0.03508156
57	0x3df642ef	0.12024485
58	0x3ead8613	0.33891353
59	0xbd984564	-0.0743511
60	0xbe177cb4	-0.14793664
61	0xbd0e9e3b	-0.03481887
62	0x3e948f51	0.29015592
63	0x3eb6e92a	0.35724765
64	0x3e94c50c	0.29056585
65	0x3e392cf0	0.18083549
66	0xbdc83791	-0.097762235
67	0x3e6f6fe4	0.23382527
68	0x3e609206	0.21930704
69	0x3e06c75e	0.1316199
70	0x3e061b78	0.13096416
71	0xbe5de1c7	-0.21668158
72	0x3da3bd65	0.079951085
73	0x3e9c5e59	0.30540732
74	0xbe06591e	-0.13119933
75	0x3dbf2d20	0.09334779
76	0xbe8ae5d8	-0.27128482
77	0x3b8ccfa4	0.0042972136
78	0xbe5fb542	-0.21846488
79	0x3e8d271e	0.27568907
80	0x3da875b7	0.08225577
81	0xbe4dcb18	-0.20097005
82	0xbe0357f2	-0.12826517
83	0xbe56e6dd	-0.20986505
84	0xbe6dafca	-0.2321159
85	0xbebca53d	-0.36844817
86	0x3e17feb1	0.14843251
87	0x3e882da1	0.26597312
88	0x3ec1383f	0.37738225
89	0x3e77f0fa	0.24213019
90	0x3e9ed9ff	0.31025693
91	0xbe4e7e55	-0.2016538
92	0xbe847103	-0.2586747
93	0xbe95ba66	-0.29243773
94	0x3d614625	0.054998536
95	0xbdded7a4	-0.10880974
96	0x3dbba394	0.091620594
97	0xbeab7015	-0.3348395
98	0xbe6e2879	-0.23257627
99	0x3e1d4aa3	0.15360503
100	0xbc0cbd62	-0.008590074
101	0x3ec7efb8	0.39050078
102	0x3eb8d4c6	0.36099833
103	0xbc890587	-0.016726268
104	0xbe2941ec	-0.16529053
105	0x3e80dba3	0.2516757
106	0x3ec45851	0.3834863
107	0x3c32d15b	0.010914172
108	0xbe968edc	-0.29405868
109	0xbd9012ba	-0.07034822
110	0x3ce376d7	0.027766628
111	0xbebc1c24	-0.3674022
112	0xbd568c88	-0.052380115
113	0x3dd51515	0.10404412
114	0xbddb6223	-0.107120775
115	0xbed9da6b	-0.42549452
116	0x3d2296df	0.039694663
117	0xbec23f8a	-0.379391
118	0x3e85cdd7	0.26133606
119	0x3e56dff7	0.20983873
120	0xbec038d6	-0.37543362
121	0xbd989b2c	-0.07451472
122	0xbda6912e	-0.081331596
123	0xbe673dc3	-0.22582154
124	0x3eb69b73	0.35665473
125	0x3e03e829	0.12881531
126	0xbe9a91e5	-0.30189434
127	0x3de8213e	0.113344654
128	0x3e84df10	0.25951433
129	0x3e3d38f4	0.18478757
130	0x3ebf1642	0.3732167
131	0xbe8470b4	-0.25867236
132	0xbc83cffd	-0.016090387
133	0x3e94803b	0.29004082
134	0xbe9ff6fe	-0.31243128
135	0x3b78341d	0.0037872859
136	0xbd995f91	-0.07488931
137	0xbe992a75	-0.29915205
138	0x3e4aa3a5	0.19788988
139	0x3ec681b8	0.38770843
140	0xbe2e9417	-0.1704868
141	0xbeb9787b	-0.36224732
142	0x3e346eb4	0.17620355
143	0x3dc20525	0.094736375
144	0xbe96be25	-0.29441944
145	0xbe6d93b1	-0.23200871
146	0x3e9ccc92	0.30624825
147	0xbe37a5e9	-0.17934383
148	0xbe90fa67	-0.28316042
149	0xbab08c95	-0.0013469631
150	0xbe6ba680	-0.23012733
151	0xbed06f83	-0.40710077
152	0xbc93fdc8	-0.018065348
153	0xbe55ae60	-0.208673
154	0x3ea17642	0.31535536
155	0x3d36f0ed	0.04466336
156	0xbe13364e	-0.14376184
157	0xbda2126b	-0.07913669
158	0x3e49d687	0.19710742
159	0xbecb4a4d	-0.39705124
160	0xbc996358	-0.018724129
161	0x3dfe945f	0.12430643
162	0x3e409af7	0.18809114
163	0x3e85760b	0.26066622
164	0x3e2b1341	0.16706564
165	0xbe2ae46b	-0.16688697
166	0xbe2c071c	-0.16799587
167	0xbe873a44	-0.2641164
168	0x3eb3d3b8	0.35122466
169	0xbec52b92	-0.38509804
170	0xbe8641c3	-0.26222047
171	0x3e8b1ed1	0.2717195
172	0x3d942eb2	0.07235469
173	0xbe9df273	-0.30849037
174	0x3e748710	0.23879647
175	0x3e00f2bd	0.12592597
176	0x3d86efdc	0.06588718
177	0xbe769c8a	-0.24083152
178	0xbd14b644	-0.036306635
179	0xbed47ca3	-0.4150134
180	0xbe80b10a	-0.2513507
181	0x3e0e4527	0.13893567
182	0xbec678df	-0.38764092
183	0xbe1a7649	-0.15084185
184	0x3e687896	0.2270225
185	0x3e62455b	0.2209677
186	0x3ebfd293	0.37465343
187	0x3db45a13	0.08806243
188	0x3c8168d1	0.01579705
189	0x3e943cae	0.28952545
190	0xbe91828c	-0.28419912
191	0xbe0e3b4f	-0.13889812
192	0x3ce68a69	0.028142171
193	0xbe811b44	-0.25216115
194	0xbe7bc267	-0.24585877
195	0xbe2ec0fc	-0.17065805
196	0xbeb6ec17	-0.35726997
197	0xbe712b07	-0.2355157
198	0xbe8c2596	-0.27372426
199	0x3e1deadc	0.15421623
200	0x3e93d26a	0.2887147
201	0x3da13797	0.07871931
202	0xbe47dd07	-0.19517909
203	0x3e8d43bf	0.2759075
204	0x3d00d2a1	0.03145087
205	0xbe334660	-0.17507315
206	0x3dc5b17d	0.09652994
207	0xbeb20bd9	-0.34774664
208	0x3e4b9615	0.1988147
209	0xbd8670b2	-0.06564464
210	0xbe14eef3	-0.14544277
211	0x3e70aff5	0.23504622
212	0xbd13f396	-0.036120974
213	0xbdeaa095	-0.1145641
214	0x3ed8bd78	0.42332053
215	0xbe0eb3b7	-0.13935743
216	0x3ea7f313	0.32802638
217	0xbebf343e	-0.37344545
218	0xbe88a34a	-0.2668708
219	0x3ec50d87	0.38486883
220	0x3c6ca315	0.014443179
221	0xbd30d6ef	-0.043173727
222	0xbde0347d	-0.10947511
223	0x3ecbf348	0.39834046
224	0x3e60bb51	0.21946456
225	0x3e3897d4	0.18026668
226	0xbb09dcfe	-0.0021036263
227	0xbcec4dc5	-0.028845677
228	0x3ebe5909	0.37177303
229	0x3e384f44	0.17998987
230	0xbe2e1bf4	-0.17002851
231	0x3e83d003	0.25744638
232	0xbe716214	-0.2357257
233	0xbda86279	-0.08221907
234	0xbe7e47e4	-0.24832112
235	0x3e93d523	0.28873548
236	0x3e8f8314	0.28029692
237	0x3e2e3aac	0.17014569
238	0xbdfbb9c5	-0.12291292
239	0xbe907abb	-0.28218636
240	0x3e5827e7	0.21108972
241	0x3c146400	0.009057045
242	0xbdeb99a8	-0.11503917
243	0xbe7f70ed	-0.24945422
244	0x3c4737e8	0.012159325
245	0xbeacbc3e	-0.33737367
246	0xbcf90d8e	-0.030401971
247	0x3e7e56be	0.24837777
248	0x3e3f01e3	0.18653063
249	0x3e08d2e1	0.13361694
250	0xbe0fb8f0	-0.14035392
251	0x3e4e16f7	0.20125948
252	0xbd3a59cb	-0.04549579
253	0xbd987226	-0.07443647
254	0x3ea2d969	0.31806496
255	0x3d7d0ee3	0.061781775

get_operations.0.gnn_layers.1.project.0.bias f4 [128]
0	0x3e3cbc9e	0.18431327
1	0xbe865259	-0.262347
2	0x3e111cfa	0.1417121
3	0x3ec51190	0.38489962
4	0xbe31cfb0	-0.17364383
5	0xbde6c57e	-0.112681374
6	0x3d411687	0.047140624
7	0x3e806723	0.25078687
8	0xb8aab4d7	-8.139916e-05
9	0x3c456452	0.012047844
10	0x3e0b8f7c	0.13628954
11	0x3e6bd0fc	0.2302894
12	0x3e871467	0.26382753
13	0xbde6006e	-0.11230551
14	0x3cc8a4bf	0.02449262
15	0xbd9e1d34	-0.07720414
16	0xbe4346f4	-0.19070035
17	0xbe8fafe0	-0.2806387
18	0xbec0e9a4	-0.37678254
19	0xbe1d8e31	-0.15386273
20	0xbe674c0a	-0.225876
21	0xbe9073f6	-0.2821347
22	0xbeb8574b	-0.360041
23	0xbd923659	-0.07139272
24	0xbe44e00a	-0.19226089
25	0xbe3ee634	-0.18642503
26	0xbd63717b	-0.055528145
27	0x3e9d7d3c	0.3075961
28	0xbe4c6d64	-0.19963604
29	0xbd8da372	-0.0691594
30	0xbeab1017	-0.33410713
31	0x3ea648f9	0.3247755
32	0xbe9608f5	-0.2930371
33	0xbecad7df	-0.39617822
34	0x3e62982a	0.22128358
35	0x3e01a55d	0.12660737
36	0x3ecfd261	0.40590194
37	0x3e86ef15	0.2635428
38	0x3bf0e45c	0.0073514413
39	0xbea3a818	-0.31964183
40	0x3e8c8aa4	0.27449524
41	0x3d0bbc5f	0.03411519
42	0xbe82f0f4	-0.25574458
43	0xbd27fb11	-0.04101092
44	0x3ec80a48	0.39070344
45	0xbe923dc2	-0.28562742
46	0x3e505f6a	0.20348898
47	0xbeb8c14c	-0.36084974
48	0xbe59e4b7	-0.21278654
49	0x3e520b20	0.20512056
50	0xbdc56a77	-0.09639447
51	0x3e3d701e	0.184998
52	0x3d631df7	0.0554485
53	0x3c56d396	0.013111969
54	0x3eb786e9	0.35845116
55	0xbec62fd9	-0.3870838
56	0x3e421af9	0.18955602
57	0xbe8c9ba3	-0.2746249
58	0x3de19b1c	0.11015913
59	0xbe837ee9	-0.25682762
60	0xbe065b26	-0.13120708
61	0xbe008917	-0.12552296
62	0x3e04918a	0.12946144
63	0x3ec83c62	0.39108568
64	0xbea19681	-0.31560138
65	0xbea1b4c3	-0.31583223
66	0x3e4b9b15	0.19883378
67	0x3d4b719d	0.049668897
68	0x3e448a3d	0.19193359
69	0x3e8fc4d0	0.28079844
70	0xbe90538d	-0.28188744
71	0x3dc2ae5e	0.09505914
72	0x3e8fc42e	0.2807936
73	0xbdcdae93	-0.10043063
74	0x3d868554	0.06568399
75	0x3e54c938	0.20779884
76	0x3eaee5fe	0.34159845
77	0x3d15bb4c	0.036555573
78	0xbeb8f15f	-0.36121652
79	0x3e924aeb	0.28572783
80	0x3e88da25	0.2672893
81	0xbe15d050	-0.14630246
82	0x3ec941bb	0.3930796
83	0x3d3a233d	0.045443762
84	0xbe57b124	-0.21063668
85	0x3e6c9b47	0.23106109
86	0xbdceaff4	-0.10092154
87	0xbcb5a3d5	-0.022172848
88	0xbe9b3031	-0.30310205
89	0xbc746c1a	-0.014918352
90	0xbdababcb	-0.08382376
91	0x3e92cdc3	0.2867261
92	0xbd209d60	-0.039212584
93	0x3e576160	0.2103324
94	0x3e012213	0.12610655
95	0x3dff4b72	0.12465562
96	0xbe23f360	-0.16010809
97	0xbe6ab930	-0.22922206
98	0xbd661e77	-0.056181397
99	0x3e474781	0.1946087
100	0xbebac39f	-0.36477372
101	0xbe1c0738	-0.15237129
102	0x3e49362d	0.19649573
103	0x3d2dda53	0.04244454
104	0xbe36cb5c	-0.17851013
105	0xbe8f0eb9	-0.2794092
106	0xbea4fe68	-0.32225347
107	0x3ea9eea4	0.3318988
108	0x3eae6597	0.34061882
109	0x3e286589	0.16444983
110	0xbe0ddcb2	-0.1385372
111	0x3ecb768e	0.39738888
112	0xbdc3098d	-0.09523306
113	0x3deb8628	0.11500198
114	0xbd4a0e65	-0.049330134
115	0xbdb69459	-0.08915014
116	0x3e95d684	0.29265225
117	0xbe81ccaa	-0.2535146
118	0xbda985f0	-0.082775
119	0xbcf53f87	-0.029937519
120	0x3d84ad0b	0.06478318
121	0x3c887c17	0.016660733
122	0x3d83d46b	0.06437
123	0x3dab7420	0.083717585
124	0x3dce8f2d	0.10085902
125	0xbe948b74	-0.29012644
126	0xbdfac3fa	-0.12244411
127	0x3d78dd04	0.060757652
